SteroMadness12/StereoMadness.onnx (onnx, 200057 bytes, 6 tensors)

network_body._body_endoder.seq_layers.0.weight f4 [128, 249]
0	0x3caf210d	0.021378065
1	0x3e0163c9	0.12635721
2	0xbd145116	-0.036210142
3	0xbde21245	-0.11038641
4	0x3e0554df	0.13020657
5	0x3d843041	0.06454516
6	0xbc25cabc	-0.010119136
7	0x3d9544ea	0.07288535
8	0x3d80c353	0.06287255
9	0xbe233061	-0.15936424
10	0xbc08243e	-0.008309422
11	0xbcc079d2	-0.023495588
12	0xbbd81fba	-0.006595579
13	0xbd24a983	-0.04020072
14	0xba0e2808	-0.0005422835
15	0x3db2a40d	0.087226965
16	0xbe2cb25a	-0.1686491
17	0xbe0141ce	-0.12622759
18	0x3e805cae	0.2507071
19	0x3b0ae3b8	0.002119286
20	0xbd24dbd9	-0.040248726
21	0x3d8fc0eb	0.07019218
22	0x3da68a1b	0.0813181
23	0x3d556106	0.052094482
24	0x3da9ce0c	0.082912534
25	0x3cd6e5b6	0.026232582
26	0xbc5d9bb0	-0.013525888
27	0xbd78427d	-0.060610283
28	0x3d695024	0.056961194
29	0x3e070da1	0.13188793
30	0x3dd3bbbc	0.10338542
31	0xbd81484f	-0.0631262
32	0xbd136763	-0.03598727
33	0xbde1a861	-0.11018444
34	0xbd20fa12	-0.039300986
35	0x3d84f719	0.06492443
36	0x3de378a1	0.111069925
37	0xbc95cb1f	-0.018285332
38	0xbcb6cd2c	-0.02231463
39	0x3d192381	0.037387375
40	0xbc5ba8a8	-0.01340691
41	0xbd8bc2e8	-0.06824285
42	0xbd8a335b	-0.067480765
43	0xbdc52c94	-0.09627643
44	0xbcca8592	-0.024721894
45	0xbc9b1fb5	-0.018936018
46	0x3c1a9d46	0.009436911
47	0xbc4e013e	-0.012573538
48	0x3d224ea7	0.03962579
49	0xbd7ed7c6	-0.062217496
50	0xbcbe2f93	-0.023216045
51	0x3cc05b28	0.023480967
52	0xbd8b5b07	-0.068044715
53	0xbd2bde4b	-0.041960042
54	0x3d9efe31	0.07763327
55	0xbd2e6303	-0.042574894
56	0xb788a9be	-1.6291506e-05
57	0xbd8ff933	-0.07029953
58	0xbcbe11ec	-0.023201905
59	0xbc663ee5	-0.014053081
60	0xbd6c0364	-0.05762042
61	0x3d93927f	0.07205676
62	0x3d2732f2	0.04082007
63	0xbd214dff	-0.039381023
64	0xbd5d290d	-0.053994227
65	0xbda91099	-0.08255119
66	0x3d8aaad1	0.06770862
67	0xbd33d79e	-0.0439068
68	0xbd9248da	-0.071428016
69	0x3db0eae9	0.086385556
70	0x3dfb301b	0.12265035
71	0x3db5d690	0.08878815
72	0xbd76024e	-0.06006079
73	0xbdb45a2b	-0.08806261
74	0xbc6ddd84	-0.0145181455
75	0xbbeae0ec	-0.007167926
76	0x3bc8837d	0.0061191902
77	0x3d677406	0.056507133
78	0x3c123e89	0.008926042
79	0x3cecafa3	0.028892344
80	0x3da7cb8f	0.081931226
81	0x3bd3a383	0.006458701
82	0xbd8e9af5	-0.069631495
83	0x3cc00094	0.023437776
84	0xbd1257cf	-0.035728272
85	0xbb9ec4f4	-0.004845256
86	0xbdc96028	-0.098327935
87	0x3d743555	0.059621174
88	0xbd81883b	-0.06324812
89	0x3e169d11	0.14708354
90	0x3d220085	0.039551277
91	0x3d4a7215	0.049425203
92	0x3d1a04cb	0.037602227
93	0x3bdf651d	0.0068174736
94	0xbdbb9f57	-0.09161251
95	0xbcd68a84	-0.026189096
96	0xbd9a9fd9	-0.0755002
97	0xbc6e196c	-0.014532428
98	0x3d911c01	0.070854194
99	0x3d78804b	0.060669225
100	0xbbe4c59c	-0.0069815647
101	0x3dbb8a7a	0.09157272
102	0xbc859f9e	-0.016311463
103	0xbd614d98	-0.05500564
104	0xbc0763cd	-0.00826354
105	0x3d06be19	0.032896135
106	0xbdd5fd90	-0.10448754
107	0xbd285f11	-0.041106287
108	0x3b68c5da	0.003551832
109	0x3d198041	0.037475828
110	0x3bcc56af	0.0062359194
111	0x3d696e61	0.05699003
112	0xbe0369ff	-0.12833403
113	0x3dea0d22	0.11428286
114	0xbe0dc1c5	-0.13843448
115	0x3d465460	0.04842031
116	0xbc97aa30	-0.018513769
117	0x3cad9e2f	0.021193592
118	0xbdfd0d2d	-0.12356029
119	0x3e0e58ad	0.13901015
120	0xbcf35661	-0.029704275
121	0xbcf0a7d7	-0.029376907
122	0xbd0c17c4	-0.034202352
123	0x3d26f51c	0.0407611
124	0x3d1db3fd	0.03850173
125	0x3e07da7e	0.13266942
126	0xbd381d38	-0.04494974
127	0x3cc7c2a4	0.024384804
128	0x3d26a136	0.040681086
129	0xbdc3a81b	-0.09553548
130	0x3d83ca1a	0.06435032
131	0x3d7a24af	0.06107014
132	0xbd638a1e	-0.05555164
133	0xbad7b6af	-0.0016457642
134	0x3cbb7714	0.02288393
135	0xbd9a3005	-0.0752869
136	0xbd912d1a	-0.070886806
137	0xbd5ce644	-0.053930536
138	0x3c494147	0.01228363
139	0xbd7b2e35	-0.061323363
140	0x3e18ef34	0.14934999
141	0xbdbaacc2	-0.09114982
142	0x3df4f826	0.11961393
143	0xbc5ad510	-0.013356462
144	0xbcb77e88	-0.022399202
145	0xbd2a8a9f	-0.041636106
146	0xbdd17998	-0.1022827
147	0x3c34865c	0.011018362
148	0xbd5fc7ae	-0.05463379
149	0xbd981c8b	-0.07427319
150	0xba91a6ca	-0.0011112329
151	0x3d960033	0.07324257
152	0x3d1dbde4	0.038511172
153	0x3ce262fd	0.027635092
154	0xbce1f6ac	-0.027583443
155	0x3d8c9593	0.068644665
156	0xbd7fc004	-0.06243898
157	0xbd9e782d	-0.077377655
158	0x3b6a6838	0.0035767686
159	0xbaa9f439	-0.0012966461
160	0x3dd0ed2f	0.10201489
161	0x3d3f6659	0.046728466
162	0x3dd96e95	0.10616795
163	0x3dda8adb	0.10671016
164	0x3dbc3cd5	0.0919129
165	0x3e28e4ca	0.16493526
166	0xbccfda5c	-0.025372677
167	0xbd8d6d18	-0.069055736
168	0xbdd9ed7d	-0.106410004
169	0xbd896b29	-0.06709892
170	0x3b3ad79b	0.0028509859
171	0xbd9399cd	-0.072070695
172	0x3d2387a4	0.03992428
173	0x3d82f749	0.06394822
174	0x3d64f80c	0.05590062
175	0x3c91fb56	0.017820042
176	0x3ce873e6	0.028375577
177	0xbd8dedc7	-0.06930118
178	0x3d656d14	0.056012228
179	0x3b130dcc	0.0022438644
180	0xbd80dcb7	-0.06292098
181	0x3d0dc55e	0.034612052
182	0x3dde0a6e	0.10841833
183	0x3db23799	0.08702011
184	0x3d07354b	0.03300981
185	0x3d31203d	0.043243635
186	0x3db1974a	0.08671434
187	0xbcfc253b	-0.030779472
188	0xbc8ed79c	-0.017436795
189	0xbccb8444	-0.024843343
190	0xbd821284	-0.06351188
191	0xbc8fa5d9	-0.017535137
192	0x3dc4e5f1	0.0961417
193	0xbd8178f4	-0.06321898
194	0xbc739e7e	-0.01486933
195	0x3cbe695b	0.023243597
196	0xbd276071	-0.040863458
197	0xbca0c633	-0.019625759
198	0x3dc8bf2f	0.098020904
199	0xbce24ba2	-0.027623955
200	0xbd0ebe82	-0.03484965
201	0x3d3d7886	0.04625752
202	0x3d4dca0c	0.050241515
203	0x3c5d751a	0.013516689
204	0x3cf2024d	0.029542113
205	0x3d2375b1	0.03990716
206	0xbe068ed9	-0.1314043
207	0xbc33bb8c	-0.010970008
208	0x3cb5af7f	0.02217841
209	0xbd3b87b6	-0.04578372
210	0xbda5ff17	-0.08105295
211	0x3b5eda56	0.003400465
212	0xbd8cbd99	-0.068721004
213	0x3d3aebcd	0.045635033
214	0x3da5355c	0.08066818
215	0xbe08a3d2	-0.13343742
216	0x3df597ed	0.11991868
217	0xbe40eaf6	-0.1883963
218	0xbd59d848	-0.053184777
219	0x3dbbca65	0.09169463
220	0x3d18af21	0.03727639
221	0x3d82d61e	0.06388496
222	0x3cbe4234	0.023224927
223	0xbca5a8e5	-0.020222137
224	0x3e032ecd	0.12810822
225	0xbe2b9a69	-0.16758122
226	0xbd8b01a4	-0.06787422
227	0xbcf3f6bf	-0.029780744
228	0x3d9fbb70	0.07799423
229	0x3df4dafd	0.11955831
230	0xbd288b09	-0.04114822
231	0xbdf68745	-0.12037519
232	0xbcce6e8e	-0.025199201
233	0x3d46523c	0.04841827
234	0xbc1d92b0	-0.009617493
235	0xbcf45114	-0.029823817
236	0x3d9b84a6	0.0759366
237	0xbd6dd874	-0.058067754
238	0xbd054da2	-0.03254474
239	0x3608c768	2.038165e-06
240	0x3dab0206	0.08349995
241	0x3d68917d	0.056779373
242	0xbd159b9a	-0.036525346
243	0x3b7dfc50	0.0038755126
244	0x3d4eaf54	0.050460175
245	0x3c316a5e	0.010828583
246	0xbd27c4c8	-0.04095915
247	0xbe788805	-0.24270637
248	0x3d346b2a	0.044047512
249	0xbda7ec54	-0.08199373
250	0xbc7f8249	-0.015595027
251	0x3d9a4648	0.07532936
252	0x3ce6ab81	0.028157951
253	0x3de46feb	0.11154159
254	0xbb492fa6	-0.0030698567
255	0xbd0d2f24	-0.034468785

network_body._body_endoder.seq_layers.0.bias f4 [128]
0	0x3ca9f18d	0.020745063
1	0x3c16e71f	0.009210377
2	0x3d09684b	0.033546727
3	0x3b2dfcee	0.0026548463
4	0x3d24e315	0.040255625
5	0x3b9920f9	0.00467312
6	0x3ca7c686	0.020480406
7	0x3d9347a8	0.07191402
8	0x3c1bbdf5	0.0095057385
9	0x3c24f2dd	0.010067669
10	0x3cdf91fc	0.02729129
11	0x3c8d99b7	0.017285211
12	0x3cb79093	0.022407806
13	0x3d2db14a	0.042405404
14	0x3c55d63d	0.013051567
15	0x3d1131f2	0.035448022
16	0x3c9fcb02	0.019505981
17	0x3cdfa2ff	0.027299402
18	0x3d00600d	0.0313416
19	0x3ba69a9b	0.0050843484
20	0x3bfc5516	0.0077005727
21	0x3caf21c1	0.0213784
22	0x3d2f9405	0.04286577
23	0x3bd07f64	0.0063628424
24	0x3c9ab461	0.01888484
25	0x3d1dc4a0	0.038517594
26	0x3c10499d	0.008806613
27	0xbb4b75d7	-0.003104558
28	0x3d1dd4ac	0.038532898
29	0x3d172983	0.036904823
30	0x3ba68d38	0.0050827526
31	0x3d0f5a2a	0.034998097
32	0x3ca1c287	0.019746078
33	0x3d2c37ed	0.042045522
34	0x3c1b033f	0.009461223
35	0x3c470c57	0.012148938
36	0x3c6dd6ae	0.014516516
37	0xbc84030b	-0.016114732
38	0xbd2cfd17	-0.042233553
39	0x3d36696f	0.044534143
40	0x3be16f45	0.0068797194
41	0x3be06478	0.0068479143
42	0x3cfdc1fb	0.030976286
43	0x3bb6646d	0.005566171
44	0x3c6baab6	0.014383962
45	0x3c1f8f3d	0.0097387405
46	0xbc1fee1d	-0.0097613605
47	0xbcf6f6ed	-0.03014704
48	0xbab88812	-0.0014078638
49	0x3d28361e	0.041067235
50	0x3c72b4d3	0.01481362
51	0xbce8c20f	-0.028412847
52	0x3b056e37	0.0020359883
53	0x3a96764b	0.0011479346
54	0x3d47b1b4	0.048753455
55	0x3d1233dd	0.035693992
56	0x3c0910a4	0.008365784
57	0x3c8b3382	0.016992334
58	0x3bb5e684	0.0055511612
59	0xbcd82cf7	-0.026388628
60	0x3c00f4b5	0.007870843
61	0x3c79a085	0.015236025
62	0x3d0a0369	0.03369466
63	0x3ab1f0c5	0.0013575783
64	0xbb9bbd11	-0.004752763
65	0x3d00cddf	0.031446334
66	0xbb93a28f	-0.0045054625
67	0x3d06445e	0.032780044
68	0x3b825cde	0.003978356
69	0x3cdff9da	0.027340818
70	0x3d0bae57	0.03410181
71	0x3c22de57	0.009940705
72	0x3cce52c6	0.025185954
73	0x3cc9fe92	0.024657521
74	0x3c7e1d8e	0.015509976
75	0x3cab2c83	0.020895248
76	0x3c7fa0b9	0.015602284
77	0x3a5d71ca	0.0008447437
78	0xbca3957b	-0.019968739
79	0xbbe2d3ea	-0.006922235
80	0x3d21be75	0.039488275
81	0x3d11b002	0.035568245
82	0x3d083eec	0.033263132
83	0x3caeda59	0.02134435
84	0xbc97d309	-0.018533247
85	0xbce0ab22	-0.027425352
86	0xbc05c658	-0.008164965
87	0x3cc5a26e	0.024125304
88	0x3cdf6f1b	0.027274659
89	0x3ca9fa45	0.02074922
90	0x3b149250	0.0022670217
91	0x3bfcf055	0.0077190795
92	0xbce3da79	-0.027814137
93	0x3d27db23	0.04098047
94	0x3d524c04	0.051342025
95	0x3ce126a0	0.027484238
96	0x3c9da620	0.019244254
97	0x3c552500	0.01300931
98	0x3d009090	0.031387866
99	0xbb8f90e1	-0.0043812846
100	0xbcbd3c43	-0.023100024
101	0x3c9519d1	0.018200787
102	0xbc7fbded	-0.015609247
103	0x3c0ed8ba	0.008718664
104	0x3c07014a	0.008240053
105	0x3c853c95	0.01626424
106	0xbb8fb5fe	-0.004385709
107	0x3cc5b38f	0.024133472
108	0x3c8bf01c	0.017082267
109	0x3c92dd60	0.017927825
110	0x3d0cdebf	0.034392115
111	0x3d5b6b07	0.053568866
112	0xbc252a52	-0.010080891
113	0x3c6447cd	0.013933134
114	0x3ccc0398	0.024904057
115	0x3d3d8786	0.046271823
116	0x3c881461	0.01661128
117	0x3bf9c786	0.007622662
118	0x3d0095eb	0.031392973
119	0x3c97ce2b	0.018530926
120	0x3878f7bd	5.9358532e-05
121	0x3c3416be	0.01099175
122	0x3cb76720	0.022388041
123	0x3c323aa0	0.010878235
124	0xbade7d73	-0.0016974643
125	0x3cfe2e30	0.031027883
126	0x3ba5dba1	0.005061582
127	0x3c17158c	0.009221446

network_body._body_endoder.seq_layers.2.weight f4 [128, 128]
0	0xbd866552	-0.06562294
1	0xbdaefefc	-0.08544728
2	0x3e5f463e	0.21804139
3	0xbe495487	-0.19661151
4	0xbc6a8357	-0.01431354
5	0x3c9fc886	0.019504797
6	0x3d80da2f	0.06291615
7	0x3dfa1589	0.12211139
8	0xbd870a86	-0.06593804
9	0x3d754374	0.05987878
10	0xbcb40dc5	-0.021979222
11	0x3e1c0860	0.1523757
12	0xbc399e29	-0.011329212
13	0x3e0d2edc	0.13787407
14	0xbd982135	-0.07428209
15	0x3d979786	0.07401948
16	0x3ce7e925	0.028309414
17	0x3d11b69f	0.03557455
18	0xbda0ef1d	-0.07858107
19	0xbce526b1	-0.027972551
20	0x3db27944	0.08714536
21	0x3d0ad770	0.033896863
22	0xbda13fa2	-0.07873465
23	0xbde65532	-0.112467185
24	0xbde9e2c9	-0.11420209
25	0x39a1a3ed	0.00030830447
26	0xbe5e7af5	-0.21726592
27	0xbe7a259d	-0.24428411
28	0x3e7e3c46	0.2482768
29	0x3e00578b	0.12533395
30	0xbe24df20	-0.1610074
31	0x3d2e1e90	0.042509615
32	0x3e6ab54b	0.2292072
33	0x3e1eefc4	0.15521151
34	0x3b6d588c	0.0036216108
35	0xbd83dc27	-0.06438475
36	0xbe38535e	-0.18000552
37	0xbe049d83	-0.12950711
38	0xbdac8a90	-0.08424866
39	0xbcc7f15d	-0.024407083
40	0xbe815b23	-0.25264844
41	0xbdc67c94	-0.0969173
42	0x3de8a08f	0.11358749
43	0xbdb4cdde	-0.088283285
44	0x3c26cf29	0.010181227
45	0xbd943a9e	-0.07237743
46	0xbd9e0b66	-0.07717018
47	0x3dcea918	0.10090846
48	0x3d8a25ab	0.06745466
49	0x3e69a9b6	0.22818646
50	0x3d62cabc	0.055369124
51	0xbde44c24	-0.11147335
52	0xbdafc6a0	-0.085828066
53	0xbe0a7d3e	-0.13524339
54	0xbd948281	-0.07251454
55	0x3d68f76c	0.056876585
56	0xbdefa270	-0.11700904
57	0x3d4b775f	0.049674388
58	0xbd894976	-0.06703465
59	0xbdc660c6	-0.09686427
60	0xbda12689	-0.07868678
61	0xbdc19c24	-0.094536096
62	0x3d689cd4	0.056790188
63	0x3d8e4843	0.069473766
64	0xbe588537	-0.21144567
65	0x3de4d035	0.11172525
66	0xbdc5dfd2	-0.09661831
67	0x3deb0fc6	0.11477618
68	0x3de9e18a	0.11419971
69	0x3cda4ee2	0.026648942
70	0x3e212c81	0.15739633
71	0x3a8a782b	0.0010564377
72	0x3e531def	0.20616888
73	0x3da568ff	0.08076667
74	0x3d248fce	0.040176205
75	0x3d3a55c2	0.04549194
76	0x3dda6974	0.10664645
77	0xbe11d5bf	-0.14241694
78	0xbdf6a532	-0.12043227
79	0x3d7cd48b	0.061726134
80	0xbc10d453	-0.008839685
81	0x3d969b4f	0.073538415
82	0x3cbb962d	0.022898758
83	0xbcdd61dc	-0.027024202
84	0xbdcfd15c	-0.10147354
85	0xbda31f97	-0.0796501
86	0xbe2f13ad	-0.1709735
87	0xbd88021d	-0.06641028
88	0x3d52f0f6	0.05149933
89	0xbdab3b0e	-0.08360873
90	0xbdb8a6e6	-0.09016208
91	0xbe0e1c06	-0.13877878
92	0xbc56fe46	-0.013122147
93	0xbcb0f9f2	-0.021603558
94	0x3e05751d	0.13032956
95	0x3d0babcc	0.034099385
96	0x3de2f7b1	0.110824
97	0x3d15bc9d	0.03655683
98	0x3d7778a3	0.060417783
99	0xbbade04e	-0.00530628
100	0xbd345335	-0.044024665
101	0xbd1cbf88	-0.038268596
102	0xbe285346	-0.16438016
103	0x3cce581b	0.025188496
104	0x3caeb8a3	0.021328276
105	0x3d913387	0.07089906
106	0xbe33ade0	-0.17546797
107	0x3df193f6	0.117957994
108	0x3e095eca	0.13415065
109	0x3de649d0	0.11244547
110	0x3caa37fc	0.020778649
111	0x3d717ab9	0.058954928
112	0x3d4e208f	0.05032402
113	0xbe292d12	-0.16521099
114	0x3dcd1c47	0.10015159
115	0x3e08a680	0.13344765
116	0x3d1a4857	0.037666645
117	0xbe2a27ae	-0.16616699
118	0x3dc93d4f	0.09826147
119	0xbd9c9ea0	-0.07647443
120	0xbda0976c	-0.078413814
121	0xbddbe64e	-0.107372865
122	0x3d523ec9	0.051329408
123	0x3cd80f7e	0.026374575
124	0xbdc0fabb	-0.09422823
125	0x3e1998a9	0.14999641
126	0x3d3d40b9	0.046204302
127	0x3e41cf1f	0.18926667
128	0x3e1af08c	0.15130824
129	0xbdcc7318	-0.0998289
130	0x3d5fa044	0.0545962
131	0xbd165ee2	-0.03671158
132	0xbd98a718	-0.074537456
133	0xbd5c9152	-0.053849526
134	0xbb75fadd	-0.003753356
135	0x3a7ef556	0.0009725889
136	0xbc02b8d2	-0.007978635
137	0xbe330763	-0.17483287
138	0x3d827478	0.06369871
139	0x3d815c09	0.063163824
140	0xbca18120	-0.019714892
141	0x3cd6b066	0.02620716
142	0xbda697c9	-0.081344195
143	0x3e010b4c	0.12601966
144	0x36e834f0	6.9203015e-06
145	0x3e5d023a	0.2158288
146	0x3d673b0c	0.056452796
147	0xbd698870	-0.057014883
148	0x3da5b6ab	0.08091482
149	0x3e2eebd4	0.17082149
150	0x3db630b9	0.08896012
151	0xbd99b972	-0.07506074
152	0xbd7515f4	-0.05983539
153	0x3e42b735	0.190152
154	0xbe1b9d66	-0.15196761
155	0xbe6a4f64	-0.22881848
156	0x3e9d74f4	0.3075329
157	0x3dfcf319	0.12351055
158	0xbdb478cb	-0.08812102
159	0x3df0c840	0.11756945
160	0x3df442c6	0.119267985
161	0x3e791c83	0.24327283
162	0xbddd7397	-0.10813063
163	0xbe3ffa44	-0.18747813
164	0xbe1aa94f	-0.15103649
165	0xbe19705a	-0.14984265
166	0xbcb1212a	-0.02162226
167	0x3daf942b	0.08573183
168	0xbdd51399	-0.104041286
169	0xbe098102	-0.13428119
170	0x3c211d3c	0.00983363
171	0x3db50f8c	0.08840856
172	0x3dd3b202	0.10336687
173	0x3def1509	0.11673934
174	0xbd23ffb8	-0.040038794
175	0xbdf78d15	-0.12087456
176	0x3e110731	0.141629
177	0xbd40449c	-0.04694043
178	0x3e0ae4c6	0.13563833
179	0x3e3afc63	0.1826034
180	0xbdb42372	-0.08795823
181	0xbdad8e7c	-0.08474442
182	0x3b0c5ca5	0.0021417525
183	0xbc8e3480	-0.017359018
184	0xbd719eb0	-0.058989227
185	0xbccaa41e	-0.02473646
186	0xbd86bcbb	-0.06578966
187	0x3d684b7b	0.05671261
188	0xbe206cab	-0.15666454
189	0xbe272628	-0.16323149
190	0x3dadc13c	0.08484122
191	0xbd699d35	-0.05703469
192	0xbd19dfb2	-0.037566848
193	0x3e41f069	0.18939365
194	0xbe0f46d5	-0.13991864
195	0xbda63a55	-0.08116595
196	0xbc47ea88	-0.012201913
197	0x3e57949c	0.21052784
198	0x3d428ec5	0.047499437
199	0xbda8f4fd	-0.08249853
200	0x3e274ef9	0.1633872
201	0x3e2cdf05	0.1688195
202	0x3df83c52	0.1212088
203	0x3e3c5320	0.18391085
204	0x3e7f6789	0.2494184
205	0xbd6fb53b	-0.058522444
206	0x3c29a428	0.010354079
207	0x3d300d68	0.042981535
208	0x3cf6188f	0.030041007
209	0xbd2e4948	-0.042550355
210	0x3dc00ae5	0.09377078
211	0xbcf6224a	-0.030045647
212	0xbe0ec2ae	-0.13941452
213	0xbcb4bf2b	-0.022063812
214	0xbdcc95fa	-0.09989543
215	0x3d98cc3a	0.07460828
216	0x3d03de59	0.03219447
217	0xbd95fc0b	-0.07323464
218	0xbe1870c2	-0.14886764
219	0xbc562e72	-0.013072597
220	0xbd903405	-0.07041172
221	0x3dc8b0ff	0.09799384
222	0x3cbb6d99	0.022879409
223	0xbbc23619	-0.005926859
224	0xbc69974d	-0.014257264
225	0xbdc5df43	-0.096617244
226	0x3e51d61c	0.20491832
227	0x3c10feb4	0.008849788
228	0xbd610009	-0.054931674
229	0x3e5111ad	0.20416899
230	0xbb26c005	-0.0025444042
231	0x3c1ba93b	0.009500797
232	0x3d03cafb	0.032176
233	0x3c84dfa0	0.016219914
234	0x3da26e6e	0.07931219
235	0x3e8e6530	0.27811575
236	0x3de4b707	0.11167722
237	0x3dc0d9c5	0.09416536
238	0x3e2d2659	0.1690916
239	0xbda107f8	-0.07862848
240	0x3cbdb4bf	0.023157476
241	0xbd883f0a	-0.06652649
242	0x3e2da899	0.16958846
243	0x3cc8ec3e	0.024526712
244	0x3d784a65	0.060617823
245	0xbd360ad9	-0.04444394
246	0xbc9b6dee	-0.018973317
247	0x3d81d32b	0.06339105
248	0xbd0e72b2	-0.03477735
249	0x3c4502d6	0.012024602
250	0x3da18b3a	0.078878835
251	0xbdccc775	-0.09998981
252	0xbdfff7aa	-0.1249841
253	0x3dda1875	0.10649196
254	0x3e307efe	0.17235944
255	0xbe000200	-0.12500763

network_body._body_endoder.seq_layers.2.bias f4 [128]
0	0x3d078b0b	0.033091586
1	0x3cbaa84f	0.022785334
2	0x3cadacf1	0.021200629
3	0x3c5fb2df	0.013653486
4	0x3cc8b2b7	0.02449928
5	0x3ccfca08	0.02536489
6	0x3c917735	0.017757038
7	0x3bc1a811	0.0059099277
8	0x3c9d0c42	0.019170884
9	0x3a1cdeb8	0.00059841154
10	0x3c8606fc	0.016360752
11	0x3c91ee97	0.017813964
12	0x3d15ffca	0.036620893
13	0x3c0bbfb3	0.008529591
14	0x3ca934b6	0.020655017
15	0x3cf6c255	0.030121962
16	0x3c1800d2	0.009277539
17	0x3c2d9051	0.01059349
18	0x3c4afbfd	0.01238918
19	0x3ca586ba	0.020205844
20	0x3be5c582	0.00701207
21	0x3d1fc8b2	0.039009757
22	0x3d26737b	0.040637475
23	0xbb536ead	-0.0032262013
24	0x3d10c9c4	0.03534867
25	0x3cd92354	0.026506104
26	0x3b897301	0.0041946177
27	0x3c4e40b4	0.012588669
28	0x3c31e768	0.010858394
29	0x3d02f3cb	0.03197078
30	0x3baa2543	0.00519243
31	0x3ca012a0	0.019540131
32	0x3cacc85a	0.021091629
33	0x3c9b668b	0.018969795
34	0x3ca13355	0.019677797
35	0x3c02debe	0.007987676
36	0x3b79c80d	0.0038113624
37	0x3d1eddb0	0.038785636
38	0x3c097ee5	0.00839207
39	0x3ca66f07	0.020316614
40	0x3c0bef08	0.008540876
41	0x3d0a77e7	0.033805754
42	0x3c9cbf76	0.019134264
43	0x3c42a6ca	0.011880586
44	0x3cbfbaab	0.02340444
45	0x3c8566f1	0.016284438
46	0x3d064183	0.03277732
47	0x3c5dc2a0	0.013535172
48	0x3c55af48	0.013042279
49	0x3cd29b7a	0.025708903
50	0x3c840f1c	0.016120486
51	0x3ce0577c	0.027385466
52	0x3ca99997	0.02070312
53	0x3b8b2dbc	0.0042473953
54	0x3c959e29	0.018263893
55	0x3c31956d	0.010838849
56	0x3af97f68	0.0019035162
57	0x3d1245d3	0.03571112
58	0x3cea7c1a	0.02862363
59	0x3c8a35ab	0.016871294
60	0x3c973d9a	0.018461991
61	0x3cbad618	0.022807166
62	0x3b4bf309	0.0031120202
63	0x3caa6708	0.020801082
64	0x3c09dbc4	0.008414213
65	0x3d0b579d	0.0340191
66	0x3caf9373	0.021432614
67	0x3d12c2d4	0.035830334
68	0x3cf2dd28	0.029646471
69	0x3c9740ba	0.018463481
70	0x3c999e5e	0.018752273
71	0x3c857598	0.016291425
72	0x3ce1a68f	0.027545242
73	0x3c146ca2	0.009059103
74	0x3c87f18e	0.016594674
75	0x3c68f6d7	0.014219007
76	0x3cebda29	0.02879055
77	0x3ce81829	0.028331833
78	0x3c705bc4	0.014670316
79	0x3b5ef34b	0.0034019526
80	0x3bf3bcb0	0.007438265
81	0x3cba0f2c	0.022712313
82	0x3d11650c	0.035496756
83	0x3c1e0b73	0.009646284
84	0x3cf08fd6	0.029365461
85	0x3c59ba91	0.01328911
86	0x3d3e044e	0.046390824
87	0x3c34a8ed	0.011026603
88	0x3cde1cec	0.0271134
89	0x3cfc111e	0.03076988
90	0x3cafe6bd	0.02147233
91	0x3c80e17f	0.015732525
92	0x3c72d174	0.014820445
93	0x3cdfe573	0.02733109
94	0x3cd09abc	0.025464408
95	0x3ce12fb1	0.027488561
96	0x3c41d34d	0.011830163
97	0x3c2c9886	0.010534411
98	0x3c23179c	0.009954359
99	0x3c568d15	0.01309516
100	0x3c7a3c69	0.015273192
101	0x3bbce3e3	0.005764471
102	0x3c56029a	0.013062144
103	0x3bc2c7a7	0.0059442106
104	0x3cc5f632	0.024165247
105	0x3bd511a9	0.0065023494
106	0x3ccb7df4	0.024840333
107	0x3ca30760	0.019900978
108	0x3c68f3fa	0.014218325
109	0x3cd17ec2	0.025573138
110	0xbb78b4dc	-0.0037949597
111	0x3c0ec622	0.008714231
112	0x3d12223a	0.035677172
113	0x3c781722	0.015142234
114	0x3b9f03cb	0.004852747
115	0x3c0355d7	0.008016071
116	0x3ceb0ba2	0.02869207
117	0x3cfa2e8e	0.030539777
118	0x3c886071	0.01664755
119	0x3ccce323	0.025010651
120	0x3d047549	0.032338414
121	0x3cd4c36a	0.025972087
122	0x3c6c4219	0.014420056
123	0x3d4213d0	0.047382176
124	0x3ce917f9	0.028453814
125	0x3cac25d1	0.021014126
126	0x3c8a9257	0.016915483
127	0x3d3081b7	0.043092456

action_model._discrete_distribution.branches.0.weight f4 [2, 128]
0	0xbdf39f7d	-0.11895654
1	0xbe0382a2	-0.12842801
2	0x3dc27920	0.09495759
3	0x3d02fded	0.031980444
4	0x3d82da45	0.06389288
5	0xbdd009c1	-0.101581104
6	0xbd9265a9	-0.071482964
7	0x3d922769	0.07136423
8	0xbd82b56e	-0.06382261
9	0x3d8b4b22	0.0680144
10	0x3d5fdb1a	0.05465231
11	0x3db2da42	0.087330356
12	0xbe1e1029	-0.15435852
13	0xbdad3f7d	-0.08459375
14	0xbdc3adc4	-0.095546275
15	0xbe0da9b1	-0.13834263
16	0x3d9bf90b	0.076158606
17	0x3db2f871	0.08738793
18	0x3dcee497	0.10102194
19	0x3dee3fa1	0.1163323
20	0x3db474f7	0.08811372
21	0xbe1b5ad0	-0.15171361
22	0xbe20806b	-0.15673988
23	0x3d3fd118	0.046830267
24	0x3e1b5368	0.15168536
25	0xbe03f9a4	-0.12888199
26	0x3d661a12	0.056177206
27	0x3db8b65c	0.09019157
28	0x3dca17f3	0.09867849
29	0xbdba64ae	-0.091012344
30	0x3dabaab8	0.083821714
31	0xbd94168d	-0.07230864
32	0xbda8ef08	-0.082487166
33	0xbda59784	-0.0808554
34	0xbdb775a6	-0.089579865
35	0x3db93fef	0.090453975
36	0x3d454fc5	0.048171777
37	0xbe108d31	-0.1411636
38	0x3d710715	0.058844645
39	0xbdb065fe	-0.086132035
40	0x3d9a352a	0.075296715
41	0x3d9ebf4a	0.07751329
42	0xbd885f9f	-0.06658863
43	0x3dc28596	0.09498136
44	0xbd823968	-0.063586056
45	0x3de74d35	0.11294023
46	0xbe280bbd	-0.16410728
47	0xbd5f9fce	-0.05459576
48	0x3dddd010	0.108307004
49	0xbde04b7f	-0.109519
50	0xbd88e754	-0.06684747
51	0x3dd7b6bd	0.105329014
52	0xbde017ee	-0.10942064
53	0x3db17a99	0.08665962
54	0x3dab4c4c	0.08364162
55	0x3dc6367f	0.09678363
56	0x3da63e96	0.08117406
57	0xbe0b9cd9	-0.13634051
58	0xbdd1e36e	-0.10248457
59	0xbd949ec5	-0.072568454
60	0x3d819713	0.06327643
61	0xbdf1e03f	-0.1181035
62	0x3dddfb36	0.1083893
63	0x3dac99be	0.084277615
64	0xbd60498d	-0.054757643
65	0xbe00b35e	-0.12568423
66	0xbd982518	-0.0742895
67	0xbdf19fa2	-0.11798026
68	0x3dd01982	0.10161115
69	0xbda9aa1e	-0.082844004
70	0xbd96e87b	-0.07368561
71	0x3d933080	0.07186985
72	0xbdb814c2	-0.08988334
73	0x3d9d6c79	0.07686705
74	0x3d7bc62b	0.061468285
75	0x3db125cb	0.086497866
76	0xbdd3c1df	-0.10339712
77	0x3dc5b751	0.096541055
78	0x3da99ed9	0.08282251
79	0x3d949834	0.07255593
80	0x3dac6756	0.08418147
81	0xbda7f021	-0.08200098
82	0xbdf8a474	-0.12140742
83	0x3db9d635	0.0907406
84	0xbdd50ad0	-0.10402453
85	0x3dd6951b	0.10477658
86	0xbe1a3e61	-0.15062858
87	0x3dba9413	0.09110274
88	0xbddb849a	-0.10718651
89	0x3da11970	0.0786618
90	0xbd9e09cc	-0.07716712
91	0xbd8da3d1	-0.06916011
92	0x3d367018	0.044540495
93	0xbdf130e5	-0.11776904
94	0x3db1b4d7	0.086770706
95	0x3deee5f9	0.116649576
96	0x3de93b67	0.11388283
97	0x3da7e93d	0.081987835
98	0x3dbb61eb	0.09149536
99	0x3d8f688e	0.07002364
100	0xbd678525	-0.05652346
101	0x3da7f5a7	0.08201151
102	0x3ddd8f1a	0.1081831
103	0x3daf506b	0.085602604
104	0xbdb40912	-0.087907925
105	0xbd298b75	-0.041392762
106	0xbdb0c08d	-0.08630476
107	0xbda95223	-0.082676195
108	0x3dcb9d51	0.09942115
109	0xbdd61fbb	-0.10455271
110	0x3d389250	0.04506141
111	0x3dadaf95	0.08480755
112	0xbdef92e0	-0.11697936
113	0xbd1809e0	-0.037118793
114	0x3d8da545	0.06916288
115	0x3dad69ce	0.08467446
116	0xbdf5c3c4	-0.1200023
117	0x3dc9a275	0.09845439
118	0xbd6e9daf	-0.058255848
119	0xbdc0e80a	-0.09419258
120	0xbdd1812c	-0.10229716
121	0xbdd31362	-0.10306431
122	0x3de81b14	0.1133329
123	0xbdf93eee	-0.12170206
124	0xbdc6089a	-0.09669609
125	0x3db074a4	0.086159974
126	0x3da70641	0.0815549
127	0xbe1d87f8	-0.15383899
128	0x3dfadd78	0.12249273
129	0x3e089175	0.13336737
130	0xbdf7a6c6	-0.120923564
131	0xbcebf2d6	-0.028802317
132	0xbd8195c1	-0.063273914
133	0x3dc3ae91	0.0955478
134	0x3db44660	0.088024855
135	0xbd91687b	-0.07100006
136	0x3d624000	0.055236816
137	0xbd9215ae	-0.07133041
138	0xbd991d21	-0.07476259
139	0xbdbb179e	-0.09135364
140	0x3e2abefa	0.16674414
141	0x3da7f464	0.08200911
142	0x3dbe9ef4	0.09307662
143	0x3e1156c8	0.1419326
144	0xbda76e0d	-0.081752874
145	0xbdaafa54	-0.083485276
146	0xbdaafc3d	-0.08348892
147	0xbdda9d85	-0.10674576
148	0xbdce2b95	-0.10066906
149	0x3e20b684	0.15694624
150	0x3e197be0	0.14988661
151	0xbd5ca6c2	-0.05386997
152	0xbe018be7	-0.12651025
153	0x3e04cb09	0.12968077
154	0xbd8066c1	-0.06269599
155	0xbdc28523	-0.0949805
156	0xbda108f7	-0.07863038
157	0x3ddde718	0.10835093
158	0xbd897f5a	-0.067137435
159	0x3d793bc9	0.06084803
160	0x3d973829	0.073837586
161	0x3da99b22	0.08281542
162	0x3daf8331	0.08569945
163	0xbdb312ed	-0.08743844
164	0xbd8adfe7	-0.06780987
165	0x3e1bda78	0.15220058
166	0xbd813f5f	-0.06310915
167	0x3dd89f29	0.105772324
168	0xbd94d37e	-0.072669014
169	0xbd8b60cf	-0.06805574
170	0x3d83642b	0.0641559
171	0xbdb305e3	-0.08741357
172	0x3d5e0c02	0.05421067
173	0xbde44b86	-0.111472175
174	0x3e14a3a8	0.14515555
175	0x3d516b4a	0.05112771
176	0xbde206a0	-0.1103642
177	0x3dc10195	0.0942413
178	0x3d8f9944	0.07011655
179	0xbdcc2bed	-0.09969316
180	0x3e04aaad	0.12955733
181	0xbdaeb06e	-0.08529745
182	0xbdaa6417	-0.08319872
183	0xbdb8f819	-0.09031696
184	0xbd9cc682	-0.0765505
185	0x3e08558b	0.13313882
186	0x3dd40e86	0.103543326
187	0x3d6bf395	0.057605345
188	0xbd7cb885	-0.06169941
189	0x3db1f352	0.08688988
190	0xbda9c56c	-0.08289608
191	0xbd801246	-0.062534854
192	0x3d7d3d66	0.061826132
193	0x3de91e92	0.11382784
194	0x3d86dcf3	0.065851115
195	0x3decde22	0.11565806
196	0xbddc2119	-0.107485004
197	0x3dba7ad6	0.0910546
198	0x3d82e3db	0.06391116
199	0xbdac9206	-0.08426289
200	0x3dc9b3a9	0.098487206
201	0xbd9d6a0f	-0.07686245
202	0xbd87f10f	-0.06637775
203	0xbda2a216	-0.07941072
204	0x3dd4e067	0.10394364
205	0xbdbfb74b	-0.09361132
206	0xbdb3aac4	-0.08772805
207	0xbdbbe44c	-0.091744035
208	0xbd5cfb93	-0.053950857
209	0x3d98076b	0.0742329
210	0x3df29367	0.11844521
211	0xbdad5c33	-0.08464851
212	0x3dad09f5	0.08449165
213	0xbd9a65cf	-0.0753895
214	0x3e3ff5c4	0.18746096
215	0xbda1582f	-0.07878148
216	0x3df1a29d	0.11798594
217	0xbd8b1f82	-0.06793119
218	0x3dbc821f	0.09204506
219	0x3d6776dd	0.05650984
220	0xbd74fad8	-0.059809536
221	0x3e04824f	0.12940334
222	0xbd945149	-0.072420664
223	0xbdf802ce	-0.1210991
224	0xbdc01fe6	-0.09381084
225	0xbdb7511c	-0.08951017
226	0xbda38f17	-0.079862766
227	0xbd886ab1	-0.06660975
228	0x3d595e80	0.053068638
229	0xbdb72066	-0.089417264
230	0xbde0ec1b	-0.109825335
231	0xbdb56c68	-0.088585675
232	0x3da83bd4	0.08214536
233	0x3d66c8a0	0.056343675
234	0x3db41a05	0.08794025
235	0x3d9fccef	0.0780276
236	0xbdc43a9a	-0.0958149
237	0x3df982d1	0.121831544
238	0xbce5525d	-0.027993375
239	0xbd993515	-0.07480828
240	0x3defbad2	0.11705555
241	0x3d5a4a36	0.05329343
242	0xbd76e529	-0.060277138
243	0xbd82fd73	-0.06395998
244	0x3ddefc52	0.1088797
245	0xbd9a67c8	-0.07539326
246	0x3d69cb72	0.057078786
247	0x3dcb3b88	0.09923464
248	0x3dac36d0	0.08408892
249	0x3db492c2	0.08817054
250	0xbdd365ac	-0.10322127
251	0x3e00df53	0.12585191
252	0x3dcaadde	0.09896444
253	0xbd96abfa	-0.07357021
254	0xbd933bf1	-0.07189167
255	0x3e1336da	0.14376393

action_model._discrete_distribution.branches.0.bias f4 [2]
0	0xbc0bb8a5	-0.008527909
1	0x3c0bb911	0.00852801
