SteroMadness12/StereoMadness/StereoMadness-1499892.onnx (onnx, 200057 bytes, 6 tensors)

network_body._body_endoder.seq_layers.0.weight f4 [128, 249]
0.021378065 0.12635721 -0.036210142 -0.11038641 0.12314054 0.062233813 -0.008706019 0.07288535
0.06287255 -0.15936424 0.026258327 -0.016246947 -0.006595579 -0.04020072 -0.0005422835 0.087226965
-0.15915109 -0.12205333 0.252664 0.002119286 -0.040248726 0.07019218 0.040295396 0.05465429
0.082912534 0.026232582 -0.013525888 -0.060610283 0.04953643 0.12909327 0.080354735 -0.0631262
-0.03598727 -0.11018444 -0.050117016 0.06539137 0.111069925 -0.018285332 -0.02231463 0.037387375
-0.016905686 -0.06931502 -0.07869709 -0.09627643 -0.024721894 -0.018936018 0.004200686 -0.015175072
0.03962579 -0.062217496 -0.023216045 0.023480967 -0.07155564 -0.039791163 0.07707809 -0.042574894
-1.6291506e-05 -0.07029953 -0.019973619 -0.013340543 -0.05762042 0.07205676 0.04082007 -0.039381023
-0.046973396 -0.07707386 0.09882122 -0.0439068 -0.071428016 0.086385556 0.114207536 0.0894326
-0.06006079 -0.08806261 -0.0145181455 -0.007167926 0.004795832 0.054981284 0.007005002 0.028892344
0.081931226 0.006458701 -0.05362377 0.026934229 -0.035728272 -0.004845256 -0.098327935 0.059621174
-0.065896176 0.14443173 0.021527546 0.049425203 0.037602227 0.0068174736 -0.07976395 -0.02584278
-0.0755002 -0.014532428 0.070854194 0.060669225 -0.009615864 0.088933505 -0.020158818 -0.05500564
-0.00826354 0.032896135 -0.10446099 -0.040949672 0.003551832 0.037475828 0.0062359194 0.05699003
-0.13101745 0.1115994 -0.13810833 0.04842031 -0.018513769 0.021193592 -0.12356029 0.14035115
-0.029704275 -0.029376907 -0.034202352 0.0407611 0.03581809 0.12998635 -0.045996677 0.024384804
0.040681086 -0.09553548 0.06435032 0.06418069 -0.05555164 -0.0016457642 0.02288393 -0.0752869
-0.07357028 -0.056613985 0.011151195 -0.061323363 0.14934999 -0.09114982 0.11961393 -0.012592947
-0.022399202 -0.041636106 -0.1022827 0.011018362 -0.057317406 -0.07695647 -0.0023091105 0.07324257
0.038511172 0.027635092 -0.027583443 0.0687309 -0.06243898 -0.077377655 0.0035767686 -0.0012966461
0.099331416 0.04404504 0.10592706 0.10671016 0.0919129 0.16493526 -0.025372677 -0.06830125
-0.106410004 -0.06709892 0.0028509859 -0.072070695 0.03724066 0.06126491 0.055737294 0.017820042
0.028375577 -0.06930118 0.056012228 0.0044497545 -0.06292098 0.034612052 0.10841833 0.08702011
0.03032622 0.040560216 0.086159095 -0.030779472 -0.017436795 -0.024843343 -0.06351188 -0.017994637
0.0961417 -0.06321898 -0.01486933 0.023243597 -0.043547705 -0.022309622 0.09793177 -0.027623955
-0.03484965 0.04625752 0.050241515 0.011964669 0.029542113 0.03990716 -0.1314043 -0.010970008
0.01949432 -0.04846772 -0.077782534 0.003400465 -0.068721004 0.045635033 0.08066818 -0.13164316
0.11991868 -0.1883963 -0.053184777 0.09169463 0.034592144 0.06120106 0.029313345 -0.020222137
0.12810822 -0.16758122 -0.06787422 -0.028340988 0.07799423 0.11955831 -0.04114822 -0.12037519
-0.027883291 0.04573425 -0.010070746 -0.029823817 0.0759366 -0.058067754 -0.03254474 -0.004160833
0.08349995 0.056779373 -0.036525346 0.0038755126 0.047775928 0.008144632 -0.036207184 -0.24077956
0.044047512 -0.08199373 -0.015595027 0.07532936 0.028157951 0.09946123 -0.008333557 -0.033049922
00000000: 0d21 af3c c963 013e 1651 14bd 4512 e2bd
00000010: 1c31 fc3d e2e8 7e3d b1a3 0ebc ea44 953d
00000020: 53c3 803d 6130 23be b41b d73c 5118 85bc
00000030: ba1f d8bb 83a9 24bd 0828 0eba 0da4 b23d
00000040: 81f8 22be 19f7 f9bd 2d5d 813e b8e3 0a3b
00000050: d9db 24bd ebc0 8f3d c90c 253d 2ddd 5f3d
00000060: 0cce a93d b6e5 d63c b09b 5dbc 7d42 78bd
00000070: b6e6 4a3d 0731 043e 0691 a43d 4f48 81bd
00000080: 6367 13bd 61a8 e1bd 8047 4dbd e9eb 853d
00000090: a178 e33d 1fcb 95bc 2ccd b6bc 8123 193d
000000a0: cb7d 8abc 09f5 8dbd f12b a1bd 942c c5bd
000000b0: 9285 cabc b51f 9bbc e8a5 893b dda0 78bc
000000c0: a74e 223d c6d7 7ebd 932f bebc 285b c03c
000000d0: c38b 92bd 0ffc 22bd 1edb 9d3d 0363 2ebd
000000e0: bea9 88b7 33f9 8fbd b79f a3bc 4b92 5abc
000000f0: 6403 6cbd 7f92 933d f232 273d ff4d 21bd
00000100: 2d67 40bd e6d8 9dbd c862 ca3d 9ed7 33bd
00000110: da48 92bd e9ea b03d a4e5 e93d 7028 b73d
00000120: 4e02 76bd 2b5a b4bd 84dd 6dbc ece0 eabb
00000130: 5b26 9d3b 0e34 613d 378a e53b a3af ec3c
00000140: 8fcb a73d 83a3 d33b 99a4 5bbd 2ca5 dc3c
00000150: cf57 12bd f4c4 9ebb 2860 c9bd 5535 743d
00000160: 93f4 86bd e9e5 133e 895a b03c 1572 4a3d
00000170: cb04 1a3d 1d65 df3b 485b a3bd 3db4 d3bc
00000180: d99f 9abd 6c19 6ebc 011c 913d 4b80 783d
00000190: db8b 1dbc c522 b63d 1b24 a5bc 984d 61bd
000001a0: cd63 07bc 19be 063d a5ef d5bd d8ba 27bd
000001b0: dac5 683b 4180 193d af56 cc3b 616e 693d
000001c0: 7029 06be 3a8e e43d 456c 0dbe 6054 463d
000001d0: 30aa 97bc 2f9e ad3c 2d0d fdbd 36b8 0f3e
000001e0: 6156 f3bc d7a7 f0bc c417 0cbd 1cf5 263d
000001f0: fdb5 123d 241b 053e 0367 3cbd a4c2 c73c
00000200: 36a1 263d 1ba8 c3bd 1aca 833d 2a71 833d
00000210: 1e8a 63bd afb6 d7ba 1477 bb3c 0530 9abd
00000220: 04ac 96bd 11e4 67bd 80b3 363c 352e 7bbd
00000230: 34ef 183e c2ac babd 26f8 f43d a652 4ebc
00000240: 887e b7bc 9f8a 2abd 9879 d1bd 5c86 343c
00000250: a8c5 6abd 5b9b 9dbd 7254 17bb 3300 963d
00000260: e4bd 1d3d fd62 e23c acf6 e1bc c9c2 8c3d
00000270: 04c0 7fbd 2d78 9ebd 3868 6a3b 39f4 a9ba
00000280: 456e cb3d 9268 343d 49f0 d83d db8a da3d
00000290: d53c bc3d cae4 283e 5cda cfbc 87e1 8bbd
000002a0: 7ded d9bd 296b 89bd 9bd7 3a3b cd99 93bd
000002b0: aa89 183d eaf0 7a3d ca4c 643d 56fb 913c
000002c0: e673 e83c c7ed 8dbd 146d 653d 3fcf 913b
000002d0: b7dc 80bd 5ec5 0d3d 6e0a de3d 9937 b23d
000002e0: b16e f83c 7822 263d 2e74 b03d 3b25 fcbc
000002f0: 9cd7 8ebc 4484 cbbc 8412 82bd 7d69 93bc
00000300: f1e5 c43d f478 81bd 7e9e 73bc 5b69 be3c
00000310: 145f 32bd abc2 b6bc 7490 c83d a24b e2bc
00000320: 82be 0ebd 8678 3d3d 0cca 4d3d 7607 443c
00000330: 4d02 f23c b175 233d d98e 06be 8cbb 33bc
00000340: 8db2 9f3c 1786 46bd 734c 9fbd 56da 5e3b
00000350: 99bd 8cbd cdeb 3a3d 5c35 a53d 77cd 06be
00000360: ed97 f53d f6ea 40be 48d8 59bd 65ca bb3d
00000370: 7eb0 0d3d f6ad 7a3d 8a22 f03c e5a8 a5bc
00000380: cd2e 033e 699a 2bbe a401 8bbd 5c2b e8bc
00000390: 70bb 9f3d fdda f43d 098b 28bd 4587 f6bd
000003a0: 806b e4bc d653 3b3d c5ff 24bc 1451 f4bc
000003b0: a684 9b3d 74d8 6dbd a24d 05bd 9957 88bb
000003c0: 0602 ab3d 7d91 683d 9a9b 15bd 50fc 7d3b
000003d0: b1b0 433d 1071 053c fc4d 14bd eb8e 76be
000003e0: 2a6b 343d 54ec a7bd 4982 7fbc 4846 9a3d
000003f0: 81ab e63c 54b2 cb3d 7989 08bc 5b5f 07bd

network_body._body_endoder.seq_layers.0.bias f4 [128]
0.018064734 0.005685076 0.030800128 0.0009446008 0.037380893 0.0048056687 0.018967086 0.06974573
0.009266263 0.008939775 0.024666395 0.016418291 0.021429928 0.041154683 0.01292867 0.032921936
0.018452989 0.02621825 0.031024458 0.005281849 0.006891137 0.018061062 0.040003303 0.006368528
0.018237535 0.034411285 0.009009118 -0.006875437 0.03530249 0.03348601 0.004651233 0.030299773
0.016614005 0.040755764 0.009701286 0.008262817 0.00889872 -0.0162467 -0.043062262 0.04238092
0.0060134744 0.0064450763 0.028305324 0.006085052 0.010714122 0.009870449 -0.008185661 -0.031285714
-0.001707748 0.03657244 0.014057439 -0.022493787 -0.011078983 0.0014640883 0.045422148 0.033287648
-0.004572003 0.015413054 0.003358747 -0.03050262 0.0072758403 0.014086071 0.029089808 -0.001018216
-0.0051955585 0.02806625 -0.008033904 0.030868765 -0.0010797766 0.025537437 0.033023145 0.008930937
0.022558067 0.022919161 0.013381573 0.018965768 0.014150889 0.00039142594 -0.026201848 -0.010041163
0.0367036 0.03264496 0.029946929 0.018792158 -0.02121704 -0.029930187 -0.015156303 0.02178559
0.023761656 0.019909808 0.00034271457 0.008307154 -0.03245095 0.03954026 0.04671959 0.023674674
0.015735574 0.011268636 0.029354561 -0.0034358387 -0.0261063 0.014208663 -0.019983253 0.008406715
0.007272501 0.015254141 -0.0056972443 0.020025888 0.015284856 0.016226925 0.03416507 0.049193766
-0.007540193 0.01329676 0.022666873 0.04242922 0.014620658 0.006461296 0.028744262 0.017330714
-0.00074618997 0.0106566595 0.018065566 0.010949652 -0.0026793282 0.02907522 0.0044335877 0.008907888
00000000: 7efc 933c e049 ba3b 8d50 fc3c 169f 773a
00000010: b51c 193d df78 9d3b dd60 9b3c d9d6 8e3d
00000020: 86d1 173c 2278 123c 2e11 ca3c a77f 863c
00000030: d18d af3c d091 283d c6d2 533c 27d9 063d
00000040: b92a 973c a8c7 d63c 0127 fe3c 5c13 ad3b
00000050: 0ccf e13b cbf4 933c 81da 233d 16af d03b
00000060: e266 953c d9f2 0c3d fb9a 133c 594b e1bb
00000070: 5899 103d a028 093d 5f69 983b 3b37 f83c
00000080: 181a 883c 84ef 263d 25f2 1e3c c460 073c
00000090: f0cb 113c cd17 85bc 0e62 30bd 9e97 2d3d
000000a0: ae0c c53b 3831 d33b 91e0 e73c 1e65 c73b
000000b0: 498a 2f3c aab7 213c 271d 06bc 7325 00bd
000000c0: 84d6 dfba fccc 153d 2c51 663c e444 b8bc
000000d0: 9f84 35bc a7e6 bf3a 930c 3a3d a158 083d
000000e0: bed0 95bb 0987 7c3c 6d1e 5c3b a1e0 f9bc
000000f0: 2c6a ee3b 44c9 663c c04d ee3c a975 85ba
00000100: 813f aabb 31eb e53c a3a0 03bc 7ee0 fc3c
00000110: 4a87 8dba e333 d13c 4743 073d 1153 123c
00000120: b2cb b83c f7c0 bb3c 633e 5b3c 195e 9b3c
00000130: 21d9 673c 4d38 cd39 42a5 d6bc b183 24bc
00000140: 8456 163d b9b6 053d 4353 f53c 03f2 993c
00000150: 5ccf adbc 2730 f5bc 2452 78bc b277 b23c
00000160: cea7 c23c e519 a33c 5fae b339 bb1a 083c
00000170: 4aeb 04bd f8f4 213d 0a5d 3f3d 64f1 c13c
00000180: e4e7 803c 16a0 383c fa78 f03c cf2b 61bb
00000190: e1dc d5bc 74cb 683c ebb3 a3bc 51bc 093c
000001a0: 294e ee3b 81ec 793c f3af babb 550d a43c
000001b0: 556d 7a3c 54ee 843c acf0 0b3d 677f 493d
000001c0: b913 f7bb a7da 593c e1af b93c 43ca 2d3d
000001d0: 7c8b 6f3c 48b9 d33b 1679 eb3c 24f9 8d3c
000001e0: f69b 43ba 4599 2e3c 3dfe 933c 2b66 333c
000001f0: ab97 2fbb 282f ee3c a147 913b 64f2 113c

network_body._body_endoder.seq_layers.2.weight f4 [128, 128]
-0.07618433 -0.09445555 0.20875637 -0.18996453 -0.018765867 0.019712346 0.06659409 0.11897899
-0.066008136 0.064703874 -0.027352728 0.14519124 -0.0086298995 0.13673025 -0.07121579 0.067325726
0.024499612 0.032334823 -0.08179192 -0.027605982 0.08375451 0.02374233 -0.0801318 -0.11209826
-0.11164432 -0.011941056 -0.21628067 -0.21243377 0.23861356 0.115009606 -0.1584077 0.033301305
0.21916804 0.15106282 0.0044698175 -0.043461856 -0.14965998 -0.12472215 -0.08028635 -0.031937186
-0.24818897 -0.094204664 0.108665295 -0.08740266 -0.0002645043 -0.07516031 -0.07481464 0.103924595
0.07122213 0.22575413 0.051827747 -0.10870719 -0.06906446 -0.13521725 -0.07630737 0.054320313
-0.105447836 0.054781027 -0.060396265 -0.09752724 -0.07564478 -0.08757214 0.043759897 0.08730799
-0.19441128 0.100114435 -0.067959 0.111472316 0.09718068 0.022965405 0.15154137 0.006299638
0.20111595 0.07462109 0.03150707 0.035899896 0.10137389 -0.14194244 -0.115652986 0.036489144
-0.011856445 0.073466055 0.013022431 -0.026979838 -0.09736242 -0.07518092 -0.13978785 -0.06969692
0.037013214 -0.0857869 -0.08199846 -0.13513054 -0.007842598 -0.02276743 0.1270724 0.025223529
0.102283284 0.035889726 0.05423874 -0.007194262 -0.03986967 -0.06887704 -0.15856102 0.02617002
0.024720082 0.07274591 -0.17050831 0.08692137 0.12767209 0.100531764 0.02199181 0.054507736
0.03361994 -0.16262497 0.093351506 0.123429686 0.028946813 -0.16296771 0.09058636 -0.0819574
-0.074937694 -0.10639599 0.0418175 0.027425237 -0.069304295 0.14636596 0.049116507 0.18178627
0.140075 -0.10818179 0.04470309 -0.030439809 -0.07968268 -0.054125007 -0.00077986944 -0.0028601687
-0.008781004 -0.17058222 0.057786703 0.0556499 -0.017640997 0.024182117 -0.07854012 0.11862635
-0.004650375 0.21169811 0.052543156 -0.057095572 0.0783486 0.16 0.086980484 -0.075254455
-0.05777469 0.17718361 -0.15147735 -0.19695231 0.2968979 0.11233308 -0.08614003 0.10799272
0.10856997 0.23836012 -0.107796095 -0.16745317 -0.12017942 -0.14440985 -0.01673396 0.07737981
-0.10023778 -0.13235822 0.003998279 0.088845976 0.09204446 0.11350289 -0.036874335 -0.11703173
0.14497375 -0.050176807 0.13157786 0.18621786 -0.07100054 -0.08539893 -0.002416768 -0.020626206
-0.0470719 -0.020190436 -0.05982594 0.056795225 -0.15441516 -0.15662068 0.07081701 -0.03963854
-0.019399747 0.17719111 -0.11151557 -0.08527442 -0.030083539 0.20618694 0.040893547 -0.0778602
0.15774857 0.16185842 0.1117385 0.17363882 0.24375606 -0.058547728 0.016031083 0.016775511
0.026428524 -0.04323894 0.083349235 -0.030608043 -0.1343754 -0.016667267 -0.06920494 0.07066531
0.016816746 -0.07610774 -0.14164586 -0.009544713 -0.06417864 0.09618619 0.018947944 -0.015643526
-0.02345962 -0.098005824 0.19772495 0.00633224 -0.049877066 0.17128785 0.004012686 0.009811694
0.035103526 0.017412467 0.08341289 0.24646845 0.10430635 0.081814796 0.16980013 -0.08378471
0.0057710214 -0.06450807 0.16214871 0.013989495 0.051317513 -0.042049594 -0.027421998 0.05761505
-0.03205105 0.012187982 0.068609595 -0.09936947 -0.10010988 0.10230497 0.17456499 -0.13300462
00000000: 8806 9cbd e971 c1bd 3bc4 553e 1086 42be
00000010: e0ba 99bc c97b a13c 7b62 883d 42ab f33d
00000020: 462f 87bd 7783 843d d412 e0bc 03ad 143e
00000030: 6c64 0dbc 0403 0c3e 96d9 91bd 12e2 893d
00000040: 69b3 c83c 8571 043d 8682 a7bd f125 e2bc
00000050: 7c87 ab3d 467f c23c 241c a4bd c693 e5bd
00000060: c7a5 e4bd 6ba4 43bc ae78 5dbe 3d88 59be
00000070: 1d57 743e 288a eb3d a135 22be f366 083d
00000080: 966d 603e 36b0 1a3e 8c77 923b 0f05 32bd
00000090: 7740 19be 546e ffbd 2b6d a4bd 91d0 02bd
000000a0: 4025 7ebe 60ee c0bd e98b de3d 2a00 b3bd
000000b0: 2bad 8ab9 a6ed 99bd 6b38 99bd 6bd6 d43d
000000c0: e8dc 913d 172c 673e 5549 543d e0a1 debd
000000d0: ab71 8dbd 6476 0abe 0a47 9cbd fa7e 5e3d
000000e0: 09f5 d7bd 1262 603d 1362 77bd 5dbc c7bd
000000f0: a7eb 9abd 0659 b3bd 943d 333d 88ce b23d
00000100: c013 47be cc08 cd3d 172e 8bbd 994b e43d
00000110: aa06 c73d f221 bc3c a92d 1b3e 326d ce3b
00000120: 57f1 4d3e f1d2 983d 8f0d 013d c50b 133d
00000130: 1d9d cf3d 5c59 11be 79db ecbd a475 153d
00000140: 8941 42bc 5f75 963d 095c 553c d204 ddbc
00000150: f365 c7bd 74f8 99bd 8c24 0fbe 42bd 8ebd
00000160: 2b9b 173d 0bb1 afbd cfee a7bd a95f 0abe
00000170: 3d7e 00bc c382 babc 441f 023e 93a1 ce3c
00000180: e679 d13d 1b01 133d 7129 5e3d d8bd ebbb
00000190: 614e 23bd 680f 8dbd d25d 22be 8362 d63c
000001a0: c581 ca3c cffb 943d bb99 2ebe d503 b23d
000001b0: 79bc 023e 99e3 cd3d 2b28 b43c 8143 5f3d
000001c0: 10b5 093d 2987 26be 132f bf3d b4c8 fc3d
000001d0: de21 ed3c 02e1 26be 5785 b93d 48d9 a7bd
000001e0: ef78 99bd 24e6 d9bd d448 2b3d e4aa e03c
000001f0: 69ef 8dbd f5e0 153e 642e 493d 2e26 3a3e
00000200: d26f 0f3e 6a8e ddbd 961a 373d e85c f9bc
00000210: ac30 a3bd 2fb2 5dbd 2770 4cba ab71 3bbb
00000220: 33de 0fbc 1bad 2ebe c0b1 6c3d 26f1 633d
00000230: da83 90bc 9319 c63c a4d9 a0bd 5ff2 f23d
00000240: 2c62 98bb 64c7 583e 7e37 573d 0cdd 69bd
00000250: 3b75 a03d 0ad7 233e d322 b23d 021f 9abd
00000260: 27a5 6cbd 9f6f 353e e11c 1bbe dead 49be
00000270: 0003 983e e30e e63d 2f6a b0bd 4a2b dd3d
00000280: ef59 de3d ad14 743e 33c4 dcbd d878 2bbe
00000290: a120 f6bd 2de0 13be a815 89bc 4e79 9e3d
000002a0: 7749 cdbd ea88 07be ff03 833b e1f4 b53d
000002b0: ce81 bc3d 3474 e83d 8b09 17bd 55ae efbd
000002c0: 0074 143e 3286 4dbd 59bc 063e e5af 3e3e
000002d0: bb68 91bd a2e5 aebd a462 1ebb 4af8 a8bc
000002e0: 77ce 40bd 6a66 a5bc 0b0c 75bd 1ca2 683d
000002f0: 021f 1ebe 2c61 20be 8208 913d 065c 22bd
00000300: 38ec 9ebc 9671 353e 4662 e4bd 5ba4 aebd
00000310: c171 f6bc ab22 533e fe7f 273d 2b75 9fbd
00000320: d788 213e 37be 253e 28d7 e43d 60ce 313e
00000330: 309b 793e becf 6fbd 9e53 833c cc6c 893c
00000340: a280 d83c 511b 31bd 01b3 aa3d b8bd fabc
00000350: b499 09be cb89 88bc 52bb 8dbd f9b8 903d
00000360: 46c3 893c 60de 9bbd 9d0b 11be 6e61 1cbc
00000370: 1770 83bd 44fd c43d b838 9b3c da26 80bc
00000380: 642e c0bc 47b7 c8bd 6978 4a3e ae7e cf3b
00000390: e54b 4cbd 1566 2f3e da7c 833b 3ac1 203c
000003a0: b7c8 0f3d 97a4 8e3c 61d4 aa3d 3a62 7c3e
000003b0: 919e d53d 848e a73d 16e0 2d3e 5197 abbd
000003c0: d61a bd3b cf1c 84bd 500a 263e 3234 653c
000003d0: 5032 523d 323c 2cbd 19a4 e0bc c2fd 6b3d
000003e0: f647 03bd 1ab0 473c 3083 8c3d 3882 cbbd
000003f0: 6906 cdbd 4585 d13d 2ac1 323e 5d32 08be

network_body._body_endoder.seq_layers.2.bias f4 [128]
0.030573102 0.01946941 0.020307224 0.0036042037 0.022680072 0.023698874 0.01582725 0.0048239357
0.015628291 0.0010766741 0.015198551 0.01739729 0.034264266 0.0060897265 0.019078868 0.027197722
0.009092226 0.009915708 0.011384239 0.017909292 0.0043545524 0.0364816 0.036872074 -0.0026211028
0.033687465 0.02413624 0.0026029183 0.011763497 0.009327666 0.0302371 0.0046323305 0.018175269
0.01745452 0.017819509 0.017924344 0.0055559464 0.0030838216 0.03597814 0.008439906 0.015141056
0.007829127 0.03128099 0.018131712 0.011697776 0.02007257 0.014867952 0.029060375 0.012236603
0.01217788 0.023521656 0.014397083 0.025476437 0.018891636 0.0041745096 0.01524691 0.008860367
0.0020601507 0.03325526 0.025600774 0.01542633 0.017768718 0.021387272 0.0032682207 0.018349843
0.0063389977 0.031304084 0.01877669 0.032514963 0.028107243 0.017305072 0.01778541 0.014817297
0.026338032 0.008167436 0.013873017 0.012073849 0.024972467 0.026193332 0.013479964 0.0034148167
0.0068368 0.020471942 0.033708632 0.0086322455 0.02662825 0.012097937 0.043973252 0.009193369
0.02559819 0.02931546 0.018500471 0.009300477 0.013642176 0.024689818 0.021247849 0.025643837
0.011102196 0.010020747 0.008996092 0.012054215 0.012640024 0.0048797256 0.01289271 0.004719116
0.022396911 0.0059693446 0.023436273 0.018407589 0.013350247 0.023929557 -0.0051316475 0.007949007
0.033237994 0.012585068 0.0042869765 0.006833117 0.027248878 0.029088901 0.014877527 0.023725636
0.026830653 0.023373257 0.012834419 0.04473824 0.026392234 0.020622635 0.016161595 0.040688522
00000000: 7174 fa3c 507e 9f3c 565b a63c 8134 6c3b
00000010: 8fcb b93c 2424 c23c 26a8 813c 1b12 9e3b
00000020: e706 803c 301f 8d3a 5803 793c c384 8e3c
00000030: b058 0c3d 548c c73b 494b 9c3c c2cd de3c
00000040: 8ff7 143c 7e75 223c f684 3a3c 82b6 923c
00000050: a2b0 8e3b bb6d 153d 2c07 173d cfc6 2bbb
00000060: defb 093d 5db9 c53c b995 2a3b afbb 403c
00000070: 11d3 183c cbb3 f73c ceca 973b 4de4 943c
00000080: c8fc 8e3c 38fa 913c 13d6 923c a80e b63b
00000090: f119 4a3b d05d 133d 8847 0a3c 3112 783c
000000a0: bd45 003c 7f20 003d f588 943c 07a8 3f3c
000000b0: 3b6f a43c b698 733c 0610 ee3c 087c 483c
000000c0: bb85 473c 7db0 c03c bee1 6b3c f6b3 d03c
000000d0: a2c2 9a3c 53ca 883b 2dce 793c 132b 113c
000000e0: 9803 073b ab36 083d b7b8 d13c b8be 7c3c
000000f0: b48f 913c 5c34 af3c a52f 563b 6952 963c
00000100: 5eb7 cf3b b638 003d 93d1 993c 692e 053d
00000110: 2941 e63c 5ec3 8d3c b5b2 913c 40c4 723c
00000120: dbc2 d73c b6d0 053c a74b 633c 65d1 453c
00000130: 0f93 cc3c 6693 d63c 11db 5c3c 1ecb 5f3b
00000140: 3c07 e03b c6b4 a73c 1012 0a3d 436e 0d3c
00000150: 7d23 da3c 6d36 463c 4c1d 343d c99f 163c
00000160: 4cb3 d13c fa26 f03c 4d8e 973c 0761 183c
00000170: 6f83 5f3c 4d42 ca3c f80f ae3c 0613 d23c
00000180: fce5 353c 0f2e 243c 5864 133c 0b7f 453c
00000190: 1a18 4f3c 1be6 9f3b f23b 533c d0a2 9a3b
000001a0: ba79 b73c 7e9a c33b 6dfd bf3c 83cb 963c
000001b0: ffba 5a3c eb07 c43c 6127 a8bb 8d3c 023c
000001c0: 9024 083d 9a31 4e3c c479 8c3b 57e8 df3b
000001d0: 0a39 df3c d94b ee3c dfc0 733c 445c c23c
000001e0: f5cb db3c 4679 bf3c 7447 523c 723f 373d
000001f0: 8734 d83c cdf0 a83c 5265 843c 02a9 263d

action_model._discrete_distribution.branches.0.weight f4 [2, 128]
-0.10374503 -0.11162869 0.08347114 0.014840575 0.052984923 -0.09054121 -0.05929691 0.0614098
-0.049527436 0.06164297 0.043152634 0.076586656 -0.13723668 -0.07147584 -0.083044 -0.12256372
0.0671908 0.07669491 0.08849928 0.10186709 0.07499939 -0.13588364 -0.14036389 0.038933683
0.13775511 -0.11458821 0.04529349 0.07978319 0.085741244 -0.080016814 0.07646949 -0.061317395
-0.0675132 -0.07058049 -0.07576005 0.07683306 0.03954 -0.12593919 0.05168621 -0.06345606
0.06524576 0.06378457 -0.056345765 0.08398509 -0.05092399 0.10147078 -0.14508359 -0.045921326
0.097762376 -0.09695386 -0.05452203 0.09039446 -0.09766893 0.07810548 0.06660813 0.0835691
0.07353432 -0.12120974 -0.08728146 -0.063419506 0.05460407 -0.108064644 0.099539205 0.070304416
-0.0423068 -0.11013283 -0.061291818 -0.100808635 0.090537734 -0.070550755 -0.064196505 0.060323566
-0.0779114 0.06568674 0.04675273 0.0750805 -0.08747206 0.0826381 0.07144661 0.063802555
0.074603274 -0.067882575 -0.10688156 0.07969626 -0.090169445 0.09377992 -0.13526426 0.079410605
-0.09437759 0.067694195 -0.061179496 -0.042591378 0.036405414 -0.10262237 0.067315914 0.10185228
0.102568544 0.072536744 0.08034349 0.060853314 -0.044622067 0.070238136 0.09986219 0.07431614
-0.07693685 -0.03355493 -0.07375909 -0.07117413 0.08838191 -0.091403015 0.036091436 0.0754855
-0.10370354 -0.025159433 0.059865724 0.07435721 -0.10514612 0.08837457 -0.04952705 -0.08329341
-0.08205833 -0.08820558 0.10027301 -0.10327638 -0.08304074 0.078066014 0.070806086 -0.13952409
0.1072811 0.11656794 -0.10943722 -0.011662486 -0.05236607 0.084507786 0.075838625 -0.06104574
0.040941514 -0.06495913 -0.06326319 -0.08061002 0.14962217 0.06889104 0.080574244 0.12615345
-0.072785206 -0.07279238 -0.07096635 -0.09228066 -0.08755489 0.14111616 0.13351054 -0.04597351
-0.112580486 0.11538699 -0.051812466 -0.084572196 -0.06569326 0.097355336 -0.059785422 0.04985686
0.058863543 0.07254042 0.07187953 -0.07381762 -0.0591784 0.13697606 -0.055950794 0.08309621
-0.06261819 -0.054327168 0.053912994 -0.076417394 0.041548498 -0.10000285 0.12613171 0.042453136
-0.09981965 0.08167602 0.05779089 -0.084758736 0.11780558 -0.076743394 -0.06616537 -0.07710256
-0.068910904 0.11800781 0.08834014 0.048456237 -0.05302709 0.07685096 -0.0740461 -0.048561852
0.049375173 0.098276265 0.052853025 0.09848632 -0.09641167 0.078761235 0.054421857 -0.07271674
0.08651507 -0.06568228 -0.051662397 -0.067993484 0.08801845 -0.07970847 -0.07635228 -0.08299076
-0.04437273 0.060114384 0.103919245 -0.073604256 0.0706365 -0.064392924 0.17209655 -0.06708947
0.10517691 -0.056963705 0.07605731 0.029941015 -0.051674552 0.11425625 -0.052965872 -0.106301874
-0.08249667 -0.080059215 -0.06871108 -0.057439487 0.041167125 -0.07764398 -0.10150451 -0.07729929
0.071174175 0.048505753 0.07539448 0.06652539 -0.084775776 0.10868173 -0.019023506 -0.06548628
0.10377962 0.041333947 -0.050980166 -0.053642992 0.0940234 -0.06531357 0.04834985 0.08833535
0.06384993 0.07331171 -0.09016149 0.10742614 0.085309006 -0.06547638 -0.06114286 0.12944897
00000000: 4678 d4bd 959d e4bd ebf2 aa3d e225 733c
00000010: b806 593d ab6d b9bd 51e1 72bd d888 7b3d
00000020: 48dd 4abd 577d 7c3d d1c0 303d 77d9 9c3d
00000030: c687 0cbe ed61 92bd f912 aabd b002 fbbd
00000040: 559b 893d 3912 9d3d 1c3f b53d b19f d03d
00000050: 4899 993d 1525 0bbe 8dbb 0fbe ed78 1f3d
00000060: ad0f 0d3e 39ad eabd ab85 393d 5e65 a33d
00000070: 1b99 af3d dbdf a3bd 099c 9c3d f327 7bbd
00000080: 5c44 8abd 818c 90bd 1628 9bbd a75a 9d3d
00000090: b2f4 213d 34f6 00be ebb4 533d 40f5 81bd
000000a0: 929f 853d 7ca1 823d d1ca 66bd 6000 ac3d
000000b0: ac95 50bd eacf cf3d cb90 14be 0018 3cbd
000000c0: a437 c83d bf8f c6bd 7e52 5fbd bb20 b93d
000000d0: a606 c8bd c4f5 9f3d d869 883d 4726 ab3d
000000e0: 2999 963d d03c f8bd 9fc0 b2bd 16e2 81bd
000000f0: 84a8 5f3d ff50 ddbd 36db cb3d c3fb 8f3d
00000100: e549 2dbd 528d e1bd 210d 7bbd c274 cebd
00000110: d96b b93d ea7c 90bd 7579 83bd d815 773d
00000120: 0390 9fbd c586 863d ca7f 3f3d cec3 993d
00000130: 8d24 b3bd 2a3e a93d 9a52 923d eaaa 823d
00000140: 9ac9 983d 0506 8bbd b8e4 dabd cb37 a33d
00000150: c2aa b8bd b00f c03d b782 0abe 07a2 a23d
00000160: 0a49 c1bd 41a3 8a3d 5a97 7abd 4c74 2ebd
00000170: d81d 153d ad2b d2bd eddc 893d ee97 d03d
00000180: 750f d23d 258e 943d 218b a43d 5341 793d
00000190: a1c5 36bd 03d9 8f3d 8c84 cc3d 0f33 983d
000001a0: 1191 9dbd e570 09bd 010f 97bd bec3 91bd
000001b0: 9301 b53d 8131 bbbd 9dd4 133d 2498 9a3d
000001c0: 8662 d4bd 281b cebc c335 753d 9848 983d
000001d0: d956 d7bd bafd b43d e0dc 4abd bc95 aabd
000001e0: 330e a8bd 21a5 b4bd f05b cd3d 9182 d3bd
000001f0: 4311 aabd 13e1 9f3d c802 913d 67df 0ebe
00000200: 31b6 db3d 2cbb ee3d 9f20 e0bd 0314 3fbc
00000210: ce7d 56bd 6b12 ad3d 4851 9b3d 190b 7abd
00000220: 4ab2 273d 4b09 85bd 2290 81bd de16 a5bd
00000230: 8e36 193e bf16 8d3d 1c04 a53d 5f2e 013e
00000240: 6910 95bd 2c14 95bd ce56 91bd a5fd bcbd
00000250: fa4f b3bd c180 103e fdb6 083e b84e 3cbd
00000260: 9990 e6bd 0450 ec3d 4f39 54bd 3034 adbd
00000270: 308a 86bd 3c62 c73d 8fe1 74bd b536 4c3d
00000280: e61a 713d 1290 943d 9335 933d b12d 97bd
00000290: 0d65 72bd 7443 0c3e a92c 65bd 592e aa3d
000002a0: f73d 80bd 2a86 5ebd dfd3 5c3d b980 9cbd
000002b0: c22e 2a3d 4bce ccbd ac28 013e 57e3 2d3d
000002c0: 3f6e ccbd c245 a73d 24b6 6c3d fd95 adbd
000002d0: 0d44 f13d a42b 9dbd b681 87bd f2e7 9dbd
000002e0: 2921 8dbd 14ae f13d adeb b43d 0c7a 463d
000002f0: ef32 59bd 0964 9d3d 7ba5 97bd cbe8 46bd
00000300: 9f3d 4a3d 1145 c93d 6a7c 583d 32b3 c93d
00000310: 7b73 c5bd 924d a13d 74e9 5e3d 84ec 94bd
00000320: d02e b13d 6e84 86bd f39b 53bd 2b40 8bbd
00000330: 0443 b43d 323e a3bd 965e 9cbd 0ff7 a9bd
00000340: 2ec0 35bd 803a 763d 9dd3 d43d d4bd 96bd
00000350: dfa9 903d 70e0 83bd 143a 303e 3466 89bd
00000360: fe66 d73d c652 69bd efc3 9b3d dc46 f53c
00000370: b2a8 53bd 2eff e93d bef2 58bd ccb4 d9bd
00000380: 04f4 a8bd 16f6 a3bd 65b8 8cbd ab45 6bbd
00000390: dc9e 283d cf03 9fbd 99e1 cfbd 174f 9ebd
000003a0: c4c3 913d f8ad 463d 6c68 9a3d 773e 883d
000003b0: ec9e adbd 8794 de3d 2fd7 9bbc ac1d 86bd
000003c0: 698a d43d c94d 293d 94d0 50bd c1b8 5bbd
000003d0: 578f c03d 1fc3 85bd 7e0a 463d 2ae9 b43d
000003e0: c1c3 823d 7324 963d 96a6 b8bd 3c02 dc3d
000003f0: 7db6 ae3d 7b18 86bd f070 7abd 458e 043e

action_model._discrete_distribution.branches.0.bias f4 [2]
-0.008362352 0.008362386
00000000: 3f02 09bc 6402 093c
