SteroMadness12/StereoMadness/StereoMadness-1999944.onnx (onnx, 200057 bytes, 6 tensors)

network_body._body_endoder.seq_layers.0.weight f4 [128, 249]
0	0x3caf210d	0.021378065
1	0x3e0163c9	0.12635721
2	0xbd145116	-0.036210142
3	0xbde21245	-0.11038641
4	0x3e03c157	0.12866722
5	0x3d837b2b	0.06419977
6	0xbc1658a4	-0.009176407
7	0x3d9544ea	0.07288535
8	0x3d80c353	0.06287255
9	0xbe233061	-0.15936424
10	0x3bcaa613	0.0061843484
11	0xbcae480c	-0.021274589
12	0xbbd81fba	-0.006595579
13	0xbd24a983	-0.04020072
14	0xba0e2808	-0.0005422835
15	0x3db2a40d	0.087226965
16	0xbe27c3d6	-0.16383299
17	0xbdffae6c	-0.1248444
18	0x3e81051b	0.25199208
19	0x3b0ae3b8	0.002119286
20	0xbd24dbd9	-0.040248726
21	0x3d8fc0eb	0.07019218
22	0x3d82a849	0.06379754
23	0x3d5e7065	0.054306407
24	0x3da9ce0c	0.082912534
25	0x3cd6e5b6	0.026232582
26	0xbc5d9bb0	-0.013525888
27	0xbd78427d	-0.060610283
28	0x3d5a7fef	0.053344663
29	0x3e058626	0.13039455
30	0x3d9f8342	0.07788707
31	0xbd81484f	-0.0631262
32	0xbd136763	-0.03598727
33	0xbde1a861	-0.11018444
34	0xbd2ea5ec	-0.042638704
35	0x3d83b46a	0.064308956
36	0x3de378a1	0.111069925
37	0xbc95cb1f	-0.018285332
38	0xbcb6cd2c	-0.02231463
39	0x3d192381	0.037387375
40	0xbc7e124c	-0.015507292
41	0xbd8d8dcb	-0.069118105
42	0xbd89abd2	-0.06722225
43	0xbdc52c94	-0.09627643
44	0xbcca8592	-0.024721894
45	0xbc9b1fb5	-0.018936018
46	0x3c495eca	0.012290666
47	0xbc6aacde	-0.014323441
48	0x3d224ea7	0.03962579
49	0xbd7ed7c6	-0.062217496
50	0xbcbe2f93	-0.023216045
51	0x3cc05b28	0.023480967
52	0xbd8faaf2	-0.07015027
53	0xbd28ecd1	-0.04124147
54	0x3d9aa464	0.07550886
55	0xbd2e6303	-0.042574894
56	0xb788a9be	-1.6291506e-05
57	0xbd8ff933	-0.07029953
58	0xbc8738d1	-0.016506584
59	0xbc7f54ad	-0.015584153
60	0xbd6c0364	-0.05762042
61	0x3d93927f	0.07205676
62	0x3d2732f2	0.04082007
63	0xbd214dff	-0.039381023
64	0xbd50a05a	-0.050934173
65	0xbda44bc0	-0.08022261
66	0x3d9d66d2	0.07685627
67	0xbd33d79e	-0.0439068
68	0xbd9248da	-0.071428016
69	0x3db0eae9	0.086385556
70	0x3dfc82ea	0.123296574
71	0x3db208fb	0.08693119
72	0xbd76024e	-0.06006079
73	0xbdb45a2b	-0.08806261
74	0xbc6ddd84	-0.0145181455
75	0xbbeae0ec	-0.007167926
76	0x3ba14205	0.0049212
77	0x3d62563f	0.055258032
78	0x3c2f0fd1	0.010684923
79	0x3cecafa3	0.028892344
80	0x3da7cb8f	0.081931226
81	0x3bd3a383	0.006458701
82	0xbd8ac45e	-0.06775735
83	0x3cc2e863	0.023792451
84	0xbd1257cf	-0.035728272
85	0xbb9ec4f4	-0.004845256
86	0xbdc96028	-0.098327935
87	0x3d743555	0.059621174
88	0xbd84a424	-0.0647662
89	0x3e150ef7	0.1455649
90	0x3d01328f	0.031542357
91	0x3d4a7215	0.049425203
92	0x3d1a04cb	0.037602227
93	0x3bdf651d	0.0068174736
94	0xbdb71485	-0.08939461
95	0xbce1e3f7	-0.027574522
96	0xbd9a9fd9	-0.0755002
97	0xbc6e196c	-0.014532428
98	0x3d911c01	0.070854194
99	0x3d78804b	0.060669225
100	0xbc0b53b1	-0.00850384
101	0x3db86c65	0.090050496
102	0xbcb68ec9	-0.022284882
103	0xbd614d98	-0.05500564
104	0xbc0763cd	-0.00826354
105	0x3d06be19	0.032896135
106	0xbdd5fd90	-0.10448754
107	0xbd2dc70c	-0.042426154
108	0x3b68c5da	0.003551832
109	0x3d198041	0.037475828
110	0x3bcc56af	0.0062359194
111	0x3d696e61	0.05699003
112	0xbe04f923	-0.12985663
113	0x3de6eeb8	0.11276001
114	0xbe0ed857	-0.13949715
115	0x3d465460	0.04842031
116	0xbc97aa30	-0.018513769
117	0x3cad9e2f	0.021193592
118	0xbdfd0d2d	-0.12356029
119	0x3e0e2bc4	0.13883883
120	0xbcf35661	-0.029704275
121	0xbcf0a7d7	-0.029376907
122	0xbd0c17c4	-0.034202352
123	0x3d26f51c	0.0407611
124	0x3d177708	0.03697875
125	0x3e064b59	0.1311468
126	0xbd3c6c74	-0.046001866
127	0x3cc7c2a4	0.024384804
128	0x3d26a136	0.040681086
129	0xbdc3a81b	-0.09553548
130	0x3d83ca1a	0.06435032
131	0x3d7b7a46	0.061395906
132	0xbd638a1e	-0.05555164
133	0xbad7b6af	-0.0016457642
134	0x3cbb7714	0.02288393
135	0xbd9a3005	-0.0752869
136	0xbd944b83	-0.07240965
137	0xbd63233a	-0.055453517
138	0x3c37e27e	0.011223434
139	0xbd7b2e35	-0.061323363
140	0x3e18ef34	0.14934999
141	0xbdbaacc2	-0.09114982
142	0x3df4f826	0.11961393
143	0xbc61ab65	-0.013773774
144	0xbcb77e88	-0.022399202
145	0xbd2a8a9f	-0.041636106
146	0xbdd17998	-0.1022827
147	0x3c34865c	0.011018362
148	0xbd6604a3	-0.056156766
149	0xbd9b3af4	-0.07579604
150	0xbb0e9022	-0.002175339
151	0x3d960033	0.07324257
152	0x3d1dbde4	0.038511172
153	0x3ce262fd	0.027635092
154	0xbce1f6ac	-0.027583443
155	0x3d8b9fad	0.06817565
156	0xbd7fc004	-0.06243898
157	0xbd9e782d	-0.077377655
158	0x3b6a6838	0.0035767686
159	0xbaa9f439	-0.0012966461
160	0x3dcdcec6	0.100492045
161	0x3d392962	0.04520548
162	0x3dd92c6b	0.10604175
163	0x3dda8adb	0.10671016
164	0x3dbc3cd5	0.0919129
165	0x3e28e4ca	0.16493526
166	0xbccfda5c	-0.025372677
167	0xbd8c3a0b	-0.06847008
168	0xbdd9ed7d	-0.106410004
169	0xbd896b29	-0.06709892
170	0x3b3ad79b	0.0028509859
171	0xbd9399cd	-0.072070695
172	0x3d1d4aae	0.0384013
173	0x3d7fb1bc	0.06242536
174	0x3d64dd20	0.055874944
175	0x3c91fb56	0.017820042
176	0x3ce873e6	0.028375577
177	0xbd8dedc7	-0.06930118
178	0x3d656d14	0.056012228
179	0x3b682611	0.003542308
180	0xbd80dcb7	-0.06292098
181	0x3d0dc55e	0.034612052
182	0x3dde0a6e	0.10841833
183	0x3db23799	0.08702011
184	0x3d00f855	0.031486828
185	0x3d2ae346	0.04172065
186	0x3db185df	0.08668112
187	0xbcfc253b	-0.030779472
188	0xbc8ed79c	-0.017436795
189	0xbccb8444	-0.024843343
190	0xbd821284	-0.06351188
191	0xbc883e96	-0.016631406
192	0x3dc4e5f1	0.0961417
193	0xbd8178f4	-0.06321898
194	0xbc739e7e	-0.01486933
195	0x3cbe695b	0.023243597
196	0xbd2d9d6a	-0.04238645
197	0xbcad4007	-0.021148695
198	0x3dca6639	0.09882779
199	0xbce24ba2	-0.027623955
200	0xbd0ebe82	-0.03484965
201	0x3d3d7886	0.04625752
202	0x3d4dca0c	0.050241515
203	0x3c68fccd	0.014220429
204	0x3cf2024d	0.029542113
205	0x3d2375b1	0.03990716
206	0xbe068ed9	-0.1314043
207	0xbc33bb8c	-0.010970008
208	0x3ca935ab	0.020655474
209	0xbd41c4af	-0.047306713
210	0xbd9e9578	-0.07743353
211	0x3b5eda56	0.003400465
212	0xbd8cbd99	-0.068721004
213	0x3d3aebcd	0.045635033
214	0x3da5355c	0.08066818
215	0xbe058885	-0.1304036
216	0x3df597ed	0.11991868
217	0xbe40eaf6	-0.1883963
218	0xbd59d848	-0.053184777
219	0x3dbbca65	0.09169463
220	0x3d127228	0.0357534
221	0x3d7f6f60	0.062362075
222	0x3cee0079	0.02905296
223	0xbca5a8e5	-0.020222137
224	0x3e032ecd	0.12810822
225	0xbe2b9a69	-0.16758122
226	0xbd8b01a4	-0.06787422
227	0xbcd91454	-0.026498951
228	0x3d9fbb70	0.07799423
229	0x3df4dafd	0.11955831
230	0xbd288b09	-0.04114822
231	0xbdf68745	-0.12037519
232	0xbcdae862	-0.026722137
233	0x3d401543	0.046895277
234	0xbbd04acc	-0.0063565727
235	0xbcf45114	-0.029823817
236	0x3d9b84a6	0.0759366
237	0xbd6dd874	-0.058067754
238	0xbd054da2	-0.03254474
239	0x3abc4a84	0.0014365469
240	0x3dab0206	0.08349995
241	0x3d68917d	0.056779373
242	0xbd159b9a	-0.036525346
243	0x3b7dfc50	0.0038755126
244	0x3d48725b	0.048937183
245	0x3c1876a3	0.009305629
246	0xbd2a3397	-0.041553106
247	0xbe772a9b	-0.24137346
248	0x3d346b2a	0.044047512
249	0xbda7ec54	-0.08199373
250	0xbc7f8249	-0.015595027
251	0x3d9a4648	0.07532936
252	0x3ce6ab81	0.028157951
253	0x3dde450a	0.10853012
254	0xbb92536e	-0.004465512
255	0xbd09095c	-0.03345619

network_body._body_endoder.seq_layers.0.bias f4 [128]
0	0x3c9d77bf	0.019222138
1	0x3beb4761	0.00718014
2	0x3d0480dd	0.032349456
3	0x3b16e938	0.0023027193
4	0x3d1f71c9	0.038926873
5	0x3ba06a06	0.0048954515
6	0x3ca506d7	0.020144863
7	0x3d90d0ee	0.070711
8	0x3c1d889e	0.009615092
9	0x3c22cfe2	0.009937258
10	0x3cd5ea1d	0.02611261
11	0x3c8771fd	0.016533846
12	0x3cb746e2	0.022372667
13	0x3d2abc21	0.04168332
14	0x3c56ecda	0.013117993
15	0x3d0b6b68	0.034037977
16	0x3c9a5c91	0.018842967
17	0x3cda8fcd	0.026679898
18	0x3d00a826	0.03141036
19	0x3bb590bc	0.0055409353
20	0x3bce0389	0.0062870425
21	0x3ca45ac0	0.020062804
22	0x3d29eb33	0.04148407
23	0x3bd8886f	0.006608061
24	0x3c9bb201	0.019005777
25	0x3d16cf6f	0.036818918
26	0x3c1318c0	0.008978069
27	0xbb9484d8	-0.004532438
28	0x3d188764	0.037238494
29	0x3d1137fc	0.03545378
30	0x3ba98255	0.0051730075
31	0x3d061044	0.032730356
32	0x3c96c686	0.01840521
33	0x3d281fef	0.04104608
34	0x3c176a5c	0.009241667
35	0x3c256315	0.010094424
36	0x3c55067e	0.013002036
37	0xbc825c75	-0.015913228
38	0xbd3012d2	-0.0429867
39	0x3d3173b0	0.04332322
40	0x3bd8953f	0.0066095884
41	0x3be5ef8e	0.0070170825
42	0x3cf31c38	0.029676542
43	0x3bc6205a	0.006046337
44	0x3c514d7d	0.012774822
45	0x3c1f16d3	0.009710032
46	0xbc202340	-0.009774029
47	0xbcf42c84	-0.029806383
48	0xbaa58689	-0.0012628596
49	0x3d200464	0.039066687
50	0x3c6cdd02	0.014456989
51	0xbce43862	-0.027858917
52	0xbb5cc7da	-0.0033688457
53	0x3abcb9e2	0.0014398659
54	0x3d439eb7	0.047758784
55	0x3d0e3bfe	0.03472518
56	0x3b957675	0.0045612403
57	0x3c879b2b	0.016553482
58	0x3b9a9b8b	0.004718249
59	0xbcf75707	-0.030192865
60	0x3c020714	0.007936258
61	0x3c7a103e	0.0152626615
62	0x3d0309af	0.031991657
63	0x3a0eb772	0.00054442056
64	0xbb9ac0b0	-0.004722677
65	0x3cf3718b	0.029717227
66	0xbbbb6eb1	-0.0057199826
67	0x3d01fb52	0.03173382
68	0x3accb5b3	0.0015618115
69	0x3cd8380a	0.026393909
70	0x3d086a05	0.033304233
71	0x3c1e6283	0.009667042
72	0x3cc2f30e	0.023797538
73	0x3cc23f96	0.02371196
74	0x3c6bb5ba	0.014386589
75	0x3ca72768	0.020404533
76	0x3c718735	0.0147417085
77	0x3a8e5e80	0.0010861903
78	0xbcb83394	-0.022485532
79	0xbc0f7ce1	-0.008757801
80	0x3d1cf2e6	0.038317584
81	0x3d12e6fa	0.035864808
82	0x3d0147ba	0.031562544
83	0x3ca39084	0.019966371
84	0xbca2bf19	-0.019866513
85	0xbce9eab3	-0.028554296
86	0xbc384ade	-0.0112483185
87	0x3cba7629	0.022761421
88	0x3cd775af	0.026301233
89	0x3ca5e166	0.02024908
90	0x3ac1d213	0.0014787338
91	0x3c06f8cb	0.008238028
92	0xbcfded19	-0.030996846
93	0x3d26b382	0.040698536
94	0x3d49247e	0.049107067
95	0x3cd472b9	0.02593361
96	0x3c8ddbcc	0.017316721
97	0x3c532406	0.012887007
98	0x3cf7768b	0.030207893
99	0xbb87c786	-0.004143658
100	0xbcd5c57d	-0.026095146
101	0x3c8d6433	0.017259693
102	0xbcad1b64	-0.021131225
103	0x3c108603	0.008821013
104	0x3c02500c	0.007953655
105	0x3c859565	0.016306588
106	0xbb9b9eaa	-0.004749139
107	0x3cb5e578	0.022204146
108	0x3c83c6e1	0.016086044
109	0x3c89fed6	0.016845148
110	0x3d0addde	0.033902995
111	0x3d54305d	0.051803935
112	0xbc0cb05e	-0.008586971
113	0x3c63b4f1	0.01389812
114	0x3cc33ae2	0.023831788
115	0x3d36d44b	0.044636052
116	0x3c817b03	0.015805727
117	0x3bfbc30b	0.007683163
118	0x3cf9a32e	0.030473318
119	0x3c8f4755	0.017490068
120	0x38fbc2d2	0.00012004901
121	0x3c357d72	0.011077272
122	0x3ca9f569	0.020746903
123	0x3c37b021	0.011211426
124	0xbad404c3	-0.0016175736
125	0x3cf5a45e	0.029985603
126	0x3ba63246	0.005071911
127	0x3c0d5599	0.008626365

network_body._body_endoder.seq_layers.2.weight f4 [128, 128]
0	0xbd910576	-0.0708112
1	0xbdb8988c	-0.09013471
2	0x3e5be395	0.21473534
3	0xbe4689e8	-0.19388545
4	0xbc86b977	-0.016445858
5	0x3ca15f78	0.019698843
6	0x3d83d2e2	0.06436707
7	0x3df6cc87	0.12050729
8	0xbd8718fe	-0.06596564
9	0x3d7becbe	0.06150507
10	0xbcc6397f	-0.024197338
11	0x3e178e4e	0.14800379
12	0xbc2e366f	-0.010633095
13	0x3e0c72ce	0.1371567
14	0xbd945144	-0.07242063
15	0x3d908876	0.07057278
16	0x3cd825ea	0.026385266
17	0x3d0b16b0	0.033957183
18	0xbda38676	-0.07984631
19	0xbce73aab	-0.028226217
20	0x3da2c0d6	0.07946937
21	0x3cf9afae	0.030479278
22	0xbda364b6	-0.079781935
23	0xbde64254	-0.1124312
24	0xbde8e86a	-0.113724545
25	0xbb8fcafe	-0.004388212
26	0xbe5db331	-0.21650387
27	0xbe6cd328	-0.23127425
28	0x3e7a6ef0	0.24456382
29	0x3df87484	0.121315986
30	0xbe23cc96	-0.15996012
31	0x3d1ad634	0.037801936
32	0x3e6727ab	0.22573726
33	0x3e1c033a	0.15235606
34	0x3b575cf6	0.0032861806
35	0xbd55e854	-0.05222352
36	0xbe2e3469	-0.1701218
37	0xbe0266e7	-0.12734567
38	0xbda7b2ff	-0.08188438
39	0xbce6b262	-0.028161231
40	0xbe804d85	-0.25059143
41	0xbdc51e32	-0.096249
42	0x3de3eb6e	0.11128889
43	0xbdb3a4c0	-0.08771658
44	0x3bbfaaad	0.0058492036
45	0xbd9701e9	-0.07373411
46	0xbd9c38d8	-0.076280296
47	0x3dd25d55	0.10271708
48	0x3d8d6806	0.069046065
49	0x3e6858b6	0.2269009
50	0x3d5e8716	0.054328047
51	0xbde1aa53	-0.11018815
52	0xbd9b4e85	-0.07583336
53	0xbe0a780f	-0.13522361
54	0xbd985667	-0.07438355
55	0x3d6626cd	0.056189347
56	0xbde2d879	-0.11076445
57	0x3d54f338	0.051989764
58	0xbd81e9fa	-0.063434556
59	0xbdc80e86	-0.09768395
60	0xbd9f739d	-0.07785723
61	0xbdbdad99	-0.09261627
62	0x3d54692b	0.05185811
63	0x3d9c2dd8	0.076259315
64	0xbe51c77b	-0.20486252
65	0x3dda48bc	0.10658404
66	0xbda959e5	-0.08269099
67	0x3de7a8f6	0.113115236
68	0x3dd9d6af	0.10636651
69	0x3ccc8e5b	0.024970224
70	0x3e1d9498	0.15388715
71	0x3b716bcd	0.0036837936
72	0x3e5033c0	0.20332241
73	0x3da01333	0.07816162
74	0x3d147c68	0.036251456
75	0x3d2ee76a	0.042701162
76	0x3dd58903	0.104265235
77	0xbe1259dc	-0.14292091
78	0xbdf185fe	-0.11793135
79	0x3d4a5c59	0.049404476
80	0xbc1f4a00	-0.009722233
81	0x3d96be22	0.07360484
82	0x3c9519b4	0.018200733
83	0xbce542d0	-0.02798596
84	0xbdcb92f0	-0.099401355
85	0xbd9de46b	-0.07709583
86	0xbe1df4a4	-0.15425354
87	0xbd8c316e	-0.068453655
88	0x3d4145bc	0.047185645
89	0xbdacb696	-0.08433263
90	0xbdafd5ed	-0.08585725
91	0xbe0ccece	-0.13750765
92	0xbc25db85	-0.010123138
93	0xbcb3c6f9	-0.021945463
94	0x3e03ef9e	0.12884375
95	0x3cf9919a	0.030464936
96	0x3dd97f7e	0.1062002
97	0x3d165d44	0.03671004
98	0x3d6a7259	0.057237957
99	0xbbe5209f	-0.006992414
100	0xbd2a518a	-0.041581668
101	0xbd43d424	-0.047809735
102	0xbe24b83d	-0.16085906
103	0x3cd1322f	0.025536625
104	0x3cbd3bea	0.023099858
105	0x3d90f495	0.070779
106	0xbe319e0b	-0.17345445
107	0x3dd76521	0.10517336
108	0x3e065c4f	0.1312115
109	0x3dd96f69	0.10616953
110	0x3ca86816	0.020557445
111	0x3d68f4f0	0.056874216
112	0x3d287dbc	0.041135535
113	0xbe283391	-0.16425921
114	0x3dc76d65	0.09737662
115	0x3e041096	0.12896952
116	0x3d0d2005	0.034454364
117	0xbe2a1ac0	-0.16611767
118	0x3dc3a89d	0.09553645
119	0xbda44c6d	-0.080223896
120	0xbd9f4e5a	-0.07778616
121	0xbddb27d8	-0.10700959
122	0x3d449be4	0.04800023
123	0x3cd8e65c	0.026477031
124	0xbdb1dd03	-0.08684733
125	0x3e17fe32	0.14843062
126	0x3d4132e5	0.047167677
127	0x3e3ce473	0.18446521
128	0x3e156061	0.14587547
129	0xbdd5954b	-0.10428866
130	0x3d514be7	0.051097777
131	0xbd0ba8c8	-0.03409651
132	0xbd9d884d	-0.07692013
133	0xbd5c8e15	-0.053846437
134	0xbb274eda	-0.0025529177
135	0xba69d762	-0.0008920339
136	0xbc07dbfc	-0.008292194
137	0xbe31934a	-0.17341343
138	0x3d7ae0a2	0.061249383
139	0x3d70b421	0.058765534
140	0xbc9dc00a	-0.01925661
141	0x3cce06e5	0.025149772
142	0xbda2fc05	-0.07958225
143	0x3dfa7cb0	0.122308135
144	0xbb0f7614	-0.0021890448
145	0x3e5af4bf	0.21382426
146	0x3d6107d3	0.054939102
147	0xbd6b4489	-0.057438407
148	0x3d96848b	0.07349499
149	0x3e2b36a2	0.1672006
150	0x3db398b8	0.08769363
151	0xbd9a146c	-0.075234264
152	0xbd73f0af	-0.059555706
153	0x3e3da6a5	0.18520601
154	0xbe1b03c8	-0.15138161
155	0xbe5d22b5	-0.21595271
156	0x3e9b5da8	0.30344892
157	0x3df40a66	0.11916046
158	0xbdb2be33	-0.08727684
159	0x3de6ce37	0.11269801
160	0x3decbbe4	0.11559275
161	0x3e75e98e	0.24014875
162	0xbdde8829	-0.10865814
163	0xbe33ae17	-0.17546879
164	0xbe10908b	-0.14117639
165	0xbe1708ec	-0.14749497
166	0xbc9b0d40	-0.018927217
167	0x3da754b0	0.0817045
168	0xbdd15cdd	-0.102227904
169	0xbe091a9d	-0.13389058
170	0x3bec5de5	0.0072133415
171	0x3db5e982	0.08882429
172	0x3dca414a	0.09875734
173	0x3dec1f10	0.11529362
174	0xbd1f5dfd	-0.038907994
175	0xbdf33ccc	-0.118768305
176	0x3e128140	0.14307117
177	0xbd46afa2	-0.04850734
178	0x3e09a6d2	0.13442543
179	0x3e3c9890	0.18417573
180	0xbd9fb9b3	-0.07799091
181	0xbdae09c3	-0.08497956
182	0xb89f84f5	-7.606476e-05
183	0xbc961b89	-0.018323677
184	0xbd57e90b	-0.05271248
185	0xbcb94710	-0.022616893
186	0xbd7fb9ea	-0.06243316
187	0x3d65fcb5	0.056149203
188	0xbe1fdf4d	-0.15612526
189	0xbe2556f1	-0.16146447
190	0x3da2d9f6	0.07951729
191	0xbd4e86cc	-0.05042152
192	0xbcfbd332	-0.030740354
193	0x3e3c7771	0.18404938
194	0xbe010c76	-0.1260241
195	0xbdaa4477	-0.0831384
196	0xbca6cd85	-0.020361671
197	0x3e55a7b7	0.2086476
198	0x3d32c090	0.043640673
199	0xbda40333	-0.08008423
200	0x3e24336c	0.16035241
201	0x3e29e92d	0.16592856
202	0x3defa862	0.11702038
203	0x3e39170e	0.18075201
204	0x3e7ce187	0.24695407
205	0xbd727b34	-0.059199527
206	0x3c57d3cd	0.013173056
207	0x3cf9942c	0.030466162
208	0x3ced28b5	0.028950075
209	0xbd2edee1	-0.042693023
210	0x3db60126	0.08886938
211	0xbcffe100	-0.031235218
212	0xbe0c4d08	-0.1370126
213	0xbc9d06c4	-0.019168265
214	0xbdaac213	-0.08337798
215	0x3d942c44	0.072350055
216	0x3ce149ee	0.027501073
217	0xbd97fe80	-0.07421589
218	0xbe1457b1	-0.14486577
219	0xbc4283ce	-0.011872245
220	0xbd8957fd	-0.067062356
221	0x3dc77b3b	0.09740301
222	0x3cad4698	0.021151826
223	0xbc21fa58	-0.009886347
224	0xbc9c8446	-0.019106042
225	0xbdc6175d	-0.09672425
226	0x3e4e2ade	0.2013354
227	0x3be4fa92	0.006987878
228	0xbd55a483	-0.052158844
229	0x3e467765	0.19381483
230	0x3aa25af3	0.0012386724
231	0x3c1d7c37	0.009612135
232	0x3d0a5c0d	0.033779193
233	0x3c81ce28	0.015845373
234	0x3da6034e	0.08106099
235	0x3e87d51c	0.26529777
236	0x3dde0093	0.10839953
237	0x3db3db5c	0.08782074
238	0x3e2cbcef	0.16868947
239	0xbda5dd81	-0.08098889
240	0x3c60e9a7	0.013727582
241	0xbd86b8f1	-0.065782435
242	0x3e2a8d64	0.16655499
243	0x3ca24675	0.019808987
244	0x3d69fab5	0.05712386
245	0xbd36ed00	-0.044659615
246	0xbcb43339	-0.021997081
247	0x3d739b45	0.05947425
248	0xbd0cc7e5	-0.03437032
249	0x3c4651bd	0.012104449
250	0x3d9a3e04	0.0753136
251	0xbdcce8a4	-0.1000531
252	0xbdf11dbd	-0.1177325
253	0x3dd678cd	0.1047226
254	0x3e313b1b	0.17307703
255	0xbe050b66	-0.1299263

network_body._body_endoder.seq_layers.2.bias f4 [128]
0	0x3d01e5d4	0.03171332
1	0x3cad051c	0.0211206
2	0x3cad6287	0.021165146
3	0x3c321c5c	0.010871019
4	0x3cc52a44	0.024068005
5	0x3cc79f58	0.024367973
6	0x3c88e0a9	0.016708689
7	0x3bc046da	0.005867821
8	0x3c8e5c20	0.017377913
9	0x3a98f51b	0.0011669727
10	0x3c857c8d	0.016294742
11	0x3c92d0af	0.017921774
12	0x3d127181	0.035752777
13	0x3bee614c	0.0072747823
14	0x3ca17bde	0.019712385
15	0x3ceaa718	0.02864413
16	0x3c19703a	0.009365136
17	0x3c2ccee6	0.010547375
18	0x3c4987b0	0.012300417
19	0x3c9fdee5	0.019515464
20	0x3bca1005	0.0061664605
21	0x3d1a4483	0.037662994
22	0x3d1e518b	0.038651984
23	0xbb29adf3	-0.0025891035
24	0x3d0f9084	0.03504993
25	0x3cceebb7	0.025258882
26	0x3b7adaa2	0.0038277288
27	0x3c4d6c57	0.012538037
28	0x3c2d6d40	0.010585129
29	0x3cfdfa14	0.031003036
30	0x3baec84c	0.005333936
31	0x3c997452	0.018732224
32	0x3c9e4dea	0.019324262
33	0x3c94eef0	0.01818034
34	0x3c9a2898	0.018818185
35	0x3beeda90	0.0072892383
36	0x3b6d6a15	0.003622656
37	0x3d190b1e	0.037364118
38	0x3c0e0907	0.0086691445
39	0x3c94b94c	0.018154763
40	0x3c0ca11e	0.008583335
41	0x3d079721	0.033103112
42	0x3c96f942	0.018429402
43	0x3c472424	0.012154613
44	0x3cb0c358	0.021577522
45	0x3c831b99	0.01600437
46	0x3cffc507	0.03122188
47	0x3c506783	0.012719992
48	0x3c5490a1	0.012973935
49	0x3cc96ac1	0.024587037
50	0x3c776bc0	0.015101373
51	0x3cde0f7c	0.027106993
52	0x3ca02cab	0.01955255
53	0x3b94aca8	0.004537184
54	0x3c8ee410	0.017442733
55	0x3c29f39e	0.010373024
56	0x3b15a11a	0.002283162
57	0x3d0cf059	0.0344089
58	0x3cdf15e6	0.027232122
59	0x3c82f62d	0.015986526
60	0x3c97361a	0.018458415
61	0x3cb385ea	0.021914441
62	0x3b646c07	0.0034854428
63	0x3ca618bf	0.020275472
64	0x3bf1695b	0.0073672957
65	0x3d060860	0.03272283
66	0x3ca36a4a	0.019948144
67	0x3d0bb7a6	0.034110688
68	0x3cf0192c	0.029308878
69	0x3c916f36	0.017753225
70	0x3c93cfa5	0.018043349
71	0x3c83f6dd	0.016108925
72	0x3cdb1e40	0.026747823
73	0x3c14d079	0.009082907
74	0x3c804dc7	0.015662087
75	0x3c60e261	0.013725848
76	0x3cdc74bc	0.026911132
77	0x3ce3d289	0.027810352
78	0x3c6d73eb	0.014492969
79	0x3b743be4	0.0037267143
80	0x3bf7e4d9	0.0075651226
81	0x3cb1afd4	0.021690287
82	0x3d0d16d0	0.034445584
83	0x3c1be5bf	0.009515225
84	0x3ce40dc0	0.027838588
85	0x3c5552bf	0.0130202165
86	0x3d38f995	0.045159895
87	0x3c2d34c6	0.010571664
88	0x3cd6d2c6	0.026223551
89	0x3cfa3d63	0.03054685
90	0x3ca3cc30	0.019994825
91	0x3c46c446	0.012131756
92	0x3c6e1ca6	0.0145331975
93	0x3cd6b90b	0.026211282
94	0x3cc63d04	0.024199016
95	0x3cdd9197	0.027046962
96	0x3c433c21	0.011916191
97	0x3c2bcaf8	0.010485403
98	0x3c207e03	0.009795669
99	0x3c556658	0.013024889
100	0x3c5bcd03	0.013415578
101	0x3bbda004	0.0057868976
102	0x3c5a4934	0.013323117
103	0x3bbb787f	0.0057211514
104	0x3cbd1d1e	0.023085173
105	0x3bc406e4	0.0059822667
106	0x3cc484cf	0.02398911
107	0x3c9bb5da	0.019007612
108	0x3c664364	0.014054153
109	0x3cca11f2	0.02466676
110	0xbb87df53	-0.0041464954
111	0x3c0deb1a	0.00866201
112	0x3d0c6f0c	0.03428559
113	0x3c5f79d9	0.013639891
114	0x3ba1f86b	0.004942944
115	0x3bfecdf6	0.0077760173
116	0x3ce35f6f	0.027755467
117	0x3cf72928	0.030170992
118	0x3c801619	0.015635537
119	0x3cc5c71e	0.024142798
120	0x3cf2dd49	0.029646533
121	0x3cc95f60	0.024581611
122	0x3c67c5f0	0.014146313
123	0x3d3d1155	0.046159107
124	0x3cdfcc73	0.027319169
125	0x3cad0f5b	0.021125486
126	0x3c8a6c16	0.016897243
127	0x3d2b6d21	0.04185212

action_model._discrete_distribution.branches.0.weight f4 [2, 128]
0	0xbde4ff6a	-0.11181529
1	0xbdf77f0b	-0.120847784
2	0x3db83e96	0.08996312
3	0x3cac99ce	0.021069434
4	0x3d72e8c1	0.059304003
5	0xbdc574cf	-0.0964142
6	0xbd86e7d0	-0.065871835
7	0x3d8a0ed9	0.06741113
8	0xbd6a80f5	-0.05725189
9	0x3d85b963	0.065295
10	0x3d4c3566	0.049855612
11	0x3da8ad19	0.08236141
12	0xbe16eefe	-0.14739606
13	0xbda0ff2f	-0.078611724
14	0xbdb81984	-0.08989242
15	0xbe064a50	-0.13114285
16	0x3d936b4e	0.07198201
17	0x3da9388d	0.08262739
18	0x3dc32805	0.095291175
19	0x3de0cdd5	0.10976759
20	0x3da7bf95	0.08190838
21	0xbe13cb01	-0.14432909
22	0xbe1836c5	-0.14864643
23	0x3d31b10d	0.04338174
24	0x3e157ebd	0.14599128
25	0xbdfa8510	-0.12232411
26	0x3d50f323	0.051013123
27	0x3dae9c08	0.08525854
28	0x3dbe2c22	0.092857614
29	0xbdb03da6	-0.086055085
30	0x3da5da63	0.080982946
31	0xbd8a185c	-0.067429274
32	0xbd9b1de9	-0.07574064
33	0xbd9bf53d	-0.07615135
34	0xbdab1245	-0.08353094
35	0x3dad0abb	0.08449312
36	0x3d3415bf	0.04396605
37	0xbe0955a1	-0.13411571
38	0x3d63e29c	0.055636033
39	0xbd9d900a	-0.07693489
40	0x3d9151f2	0.07095708
41	0x3d92d53c	0.071695775
42	0xbd7d9436	-0.061908923
43	0x3db87b0f	0.090078466
44	0xbd6b67ca	-0.057472028
45	0x3ddcdd43	0.1078439
46	0xbe1fb2dc	-0.15595573
47	0xbd4ef641	-0.050527815
48	0x3dd421bb	0.10357996
49	0xbdd4ad37	-0.103846006
50	0xbd7a3ed1	-0.061095063
51	0x3dcb9c27	0.09941893
52	0xbdd43aa7	-0.103627495
53	0x3da969fe	0.082721695
54	0x3d9c9f0d	0.07647524
55	0x3dba2995	0.090899624
56	0x3d9f18e8	0.07768422
57	0xbe047855	-0.12936528
58	0xbdc3c3e6	-0.09558849
59	0xbd8bc424	-0.0682452
60	0x3d73be2d	0.059507538
61	0xbde7e14b	-0.11322268
62	0x3dd54287	0.1041308
63	0x3da132bd	0.07871006
64	0xbd48f281	-0.049059395
65	0xbdf3523f	-0.118809216
66	0xbd8b379b	-0.06797715
67	0xbde081b0	-0.10962236
68	0x3dc6882c	0.096939415
69	0xbd9de940	-0.077105045
70	0xbd8e0cd7	-0.06936043
71	0x3d897a9f	0.06712841
72	0xbdacb9b6	-0.08433859
73	0x3d93734a	0.07199724
74	0x3d612615	0.05496796
75	0x3da7a7ca	0.081863
76	0xbdc564b1	-0.09638346
77	0x3db9723f	0.09054994
78	0x3d9fed98	0.07808989
79	0x3d8c4bd1	0.06850398
80	0x3da40050	0.08007872
81	0xbd9b904c	-0.07595882
82	0xbdea7934	-0.11448899
83	0x3dafb5b3	0.08579578
84	0xbdc705d9	-0.09717912
85	0x3dcc1e9e	0.09966777
86	0xbe12dd51	-0.14342238
87	0x3db05699	0.08610267
88	0xbdcf1f27	-0.10113364
89	0x3d97ee89	0.07418544
90	0xbd8f15c2	-0.06986572
91	0xbd63e2f8	-0.055636376
92	0x3d263c30	0.040584743
93	0xbde4354f	-0.1114298
94	0x3da17d2f	0.07885205
95	0x3de17511	0.11008657
96	0x3ddf84cb	0.10914
97	0x3d9e5148	0.07730347
98	0x3db09e0f	0.08623897
99	0x3d878b1e	0.066183314
100	0xbd4b7428	-0.049671322
101	0x3d9dc58b	0.07703694
102	0x3dd64d7f	0.10464
103	0x3da47421	0.08029962
104	0xbda94cb5	-0.08266584
105	0xbd1abae2	-0.03777588
106	0xbda4e936	-0.08052294
107	0xbd9e7620	-0.07737374
108	0x3dc14df6	0.09438698
109	0xbdc9f4ab	-0.0986112
110	0x3d27e8bd	0.04099344
111	0x3da532a1	0.08066297
112	0xbde2b15f	-0.11068987
113	0xbcfdcacd	-0.030980492
114	0x3d84d19a	0.06485291
115	0x3da3f1f8	0.08005136
116	0xbde71556	-0.112833664
117	0x3dc0b7a8	0.0941003
118	0xbd5e65fd	-0.054296482
119	0xbdb60c82	-0.088891044
120	0xbdbefe61	-0.09325863
121	0xbdc48d66	-0.09597282
122	0x3ddc8a04	0.10768512
123	0xbde8e688	-0.11372095
124	0xbdb95b4d	-0.09050617
125	0x3daa1bf1	0.08306111
126	0x3d9d4f2d	0.07681117
127	0xbe16c5b5	-0.14723857
128	0x3dec3d58	0.11535138
129	0x3e00ce54	0.12578708
130	0xbded6c47	-0.11592918
131	0xbc9290e1	-0.01789135
132	0xbd705fc6	-0.058685087
133	0x3db91995	0.090380825
134	0x3da8c879	0.08241362
135	0xbd894ff5	-0.06704704
136	0x3d4755fd	0.04866599
137	0xbd8c83fa	-0.0686111
138	0xbd8f4a5c	-0.06996605
139	0xbdb0ea7c	-0.08638474
140	0x3e239dcb	0.15978162
141	0x3d9bb409	0.07602698
142	0x3db30aac	0.0874227
143	0x3e09f762	0.13473275
144	0xbd9ee05a	-0.077576354
145	0xbda13a7a	-0.07872482
146	0xbd9f3fb1	-0.0777582
147	0xbdcd2bc1	-0.10018111
148	0xbdc1763a	-0.09446378
149	0x3e1926b0	0.14956164
150	0x3e113237	0.14179312
151	0xbd4e86c9	-0.05042151
152	0xbdf76e95	-0.12081639
153	0x3dfc27e0	0.12312293
154	0xbd6ba6b8	-0.057532042
155	0xbdb86ad6	-0.09004752
156	0xbd951d2f	-0.07280957
157	0x3dd3c008	0.103393614
158	0xbd83af10	-0.06429875
159	0x3d653f76	0.055968724
160	0x3d896702	0.067091
161	0x3d9ff8d2	0.078111306
162	0x3da31fc4	0.07965043
163	0xbda6ddc0	-0.08147764
164	0xbd824300	-0.063604355
165	0x3e14a2e2	0.1451526
166	0xbd755a52	-0.05990059
167	0x3dc5c927	0.096575074
168	0xbd8bf050	-0.06832945
169	0xbd7eed95	-0.062238295
170	0x3d739d4e	0.05947619
171	0xbda8fb62	-0.082510725
172	0x3d4500e9	0.04809657
173	0xbdd9db9e	-0.10637592
174	0x3e0c4abf	0.13700388
175	0x3d40c1a6	0.047059678
176	0xbdd85850	-0.10563719
177	0x3db5633f	0.0885682
178	0x3d83d146	0.064364
179	0xbdc0115f	-0.09378313
180	0x3dfd7810	0.12376416
181	0xbda69fd9	-0.08135957
182	0xbd9bb6e5	-0.07603244
183	0xbdaceb37	-0.08443301
184	0xbd95a0e3	-0.07306077
185	0x3e013102	0.12616351
186	0x3dc5eef8	0.0966472
187	0x3d5a3e4a	0.05328206
188	0xbd6d4881	-0.057930473
189	0x3da7f457	0.08200901
190	0xbda10cc7	-0.07863765
191	0xbd695695	-0.056967337
192	0x3d65e641	0.05612779
193	0x3ddb0a01	0.106952675
194	0x3d73dec0	0.059538603
195	0x3ddbc022	0.10730006
196	0xbdd28fca	-0.10281332
197	0x3daeb9ed	0.08531556
198	0x3d74104a	0.059585847
199	0xbda2dc30	-0.07952154
200	0x3dbe5889	0.092942305
201	0xbd9370ea	-0.07199271
202	0xbd754233	-0.059877586
203	0xbd992422	-0.07477595
204	0x3dc6832b	0.09692987
205	0xbdb37242	-0.08762027
206	0xbda9f98d	-0.08299551
207	0xbdb397f1	-0.08769215
208	0xbd4c2d66	-0.049847983
209	0x3d8ba78f	0.06819069
210	0x3de4681e	0.11152671
211	0xbda33bb6	-0.07970373
212	0x3d9f04f6	0.07764618
213	0xbd8fef5b	-0.07028075
214	0x3e3894b4	0.18025476
215	0xbd971abf	-0.07378148
216	0x3de53d1f	0.111932985
217	0xbd81f4a6	-0.06345491
218	0x3dad8e0a	0.084743574
219	0x3d30121d	0.042986024
220	0xbd64c701	-0.055853847
221	0x3dfc08d7	0.123063736
222	0xbd8419a7	-0.06450205
223	0xbdea91ec	-0.11453614
224	0xbdb66953	-0.08906808
225	0xbdadb934	-0.0848259
226	0xbd98cb49	-0.074606486
227	0xbd808d47	-0.062769465
228	0x3d3d4d6c	0.046216413
229	0xbdacf052	-0.08444275
230	0xbdd9aa86	-0.10628228
231	0xbdaa9027	-0.08328276
232	0x3d9d7f6e	0.07690321
233	0x3d57f7f9	0.05272672
234	0x3da842a5	0.082158364
235	0x3d94f0e1	0.072725065
236	0xbdb9eb49	-0.0907808
237	0x3ded57b5	0.115889944
238	0xbcc3ff2d	-0.023925388
239	0xbd90b825	-0.07066373
240	0x3de2d943	0.11076596
241	0x3d4125a9	0.047155056
242	0xbd653df7	-0.055967297
243	0xbd730b62	-0.059337027
244	0x3dd04dda	0.10171099
245	0xbd917d06	-0.071039245
246	0x3d5993a8	0.05311933
247	0x3dc05ff3	0.09393301
248	0x3d99b3f5	0.07505027
249	0x3da60cbb	0.08107897
250	0xbdc7d4a3	-0.09757354
251	0x3df1663d	0.117870785
252	0x3dbe008c	0.09277448
253	0xbd90534f	-0.0704714
254	0xbd8984e5	-0.06714801
255	0x3e0c7494	0.13716346

action_model._discrete_distribution.branches.0.bias f4 [2]
0	0xbc055fa0	-0.008140475
1	0x3c055fd9	0.008140528
