SteroMadness12/StereoMadness/StereoMadness-2499942.onnx (onnx, 200057 bytes, 6 tensors)

network_body._body_endoder.seq_layers.0.weight f4 [128, 249]
0	0x3caf210d	0.021378065
1	0x3e0163c9	0.12635721
2	0xbd145116	-0.036210142
3	0xbde21245	-0.11038641
4	0x3e0639ca	0.13107982
5	0x3d8574b5	0.06516401
6	0xbc1e5dff	-0.009665965
7	0x3d9544ea	0.07288535
8	0x3d80c353	0.06287255
9	0xbe233061	-0.15936424
10	0xbb93747d	-0.0044999705
11	0xbcb73e57	-0.022368593
12	0xbbd81fba	-0.006595579
13	0xbd24a983	-0.04020072
14	0xba0e2808	-0.0005422835
15	0x3db2a40d	0.087226965
16	0xbe2a9937	-0.1666001
17	0xbe008208	-0.12549603
18	0x3e80717e	0.25086588
19	0x3b0ae3b8	0.002119286
20	0xbd24dbd9	-0.040248726
21	0x3d8fc0eb	0.07019218
22	0x3d9b84b2	0.07593669
23	0x3d5b280b	0.053504985
24	0x3da9ce0c	0.082912534
25	0x3cd6e5b6	0.026232582
26	0xbc5d9bb0	-0.013525888
27	0xbd78427d	-0.060610283
28	0x3d66fb23	0.056391846
29	0x3e06eedb	0.13177054
30	0x3dab8b31	0.08376158
31	0xbd81484f	-0.0631262
32	0xbd136763	-0.03598727
33	0xbde1a861	-0.11018444
34	0xbd16876b	-0.03675024
35	0x3d865c17	0.065605335
36	0x3de378a1	0.111069925
37	0xbc95cb1f	-0.018285332
38	0xbcb6cd2c	-0.02231463
39	0x3d192381	0.037387375
40	0xbc65ff1d	-0.0140378745
41	0xbd8c5759	-0.06852598
42	0xbd865986	-0.06560044
43	0xbdc52c94	-0.09627643
44	0xbcca8592	-0.024721894
45	0xbc9b1fb5	-0.018936018
46	0x3c58c5fd	0.013230798
47	0xbc3eb1d2	-0.011639075
48	0x3d224ea7	0.03962579
49	0xbd7ed7c6	-0.062217496
50	0xbcbe2f93	-0.023216045
51	0x3cc05b28	0.023480967
52	0xbd8ca59e	-0.068675265
53	0xbd2b2beb	-0.04178993
54	0x3da3d960	0.08000445
55	0xbd2e6303	-0.042574894
56	0xb788a9be	-1.6291506e-05
57	0xbd8ff933	-0.07029953
58	0xbcb44d25	-0.022009442
59	0xbc5b1bb4	-0.013373304
60	0xbd6c0364	-0.05762042
61	0x3d93927f	0.07205676
62	0x3d2732f2	0.04082007
63	0xbd214dff	-0.039381023
64	0xbd5a3726	-0.05327525
65	0xbda7f0c8	-0.08200222
66	0x3d8a1be7	0.06743603
67	0xbd33d79e	-0.0439068
68	0xbd9248da	-0.071428016
69	0x3db0eae9	0.086385556
70	0x3dfc22fa	0.12311359
71	0x3db50a34	0.08839837
72	0xbd76024e	-0.06006079
73	0xbdb45a2b	-0.08806261
74	0xbc6ddd84	-0.0145181455
75	0xbbeae0ec	-0.007167926
76	0x3bbfccd4	0.005853275
77	0x3d66527c	0.056231007
78	0x3c2e7752	0.010648565
79	0x3cecafa3	0.028892344
80	0x3da7cb8f	0.081931226
81	0x3bd3a383	0.006458701
82	0xbd9257af	-0.071456306
83	0x3cc40605	0.023928652
84	0xbd1257cf	-0.035728272
85	0xbb9ec4f4	-0.004845256
86	0xbdc96028	-0.098327935
87	0x3d743555	0.059621174
88	0xbd8234a0	-0.06357694
89	0x3e1646df	0.14675473
90	0x3d165bb4	0.03670855
91	0x3d4a7215	0.049425203
92	0x3d1a04cb	0.037602227
93	0x3bdf651d	0.0068174736
94	0xbdb8f9a6	-0.09031992
95	0xbcd7fd28	-0.026365831
96	0xbd9a9fd9	-0.0755002
97	0xbc6e196c	-0.014532428
98	0x3d911c01	0.070854194
99	0x3d78804b	0.060669225
100	0xbbef9479	-0.0073114005
101	0x3dbadd89	0.09124286
102	0xbc9f1c6f	-0.019422738
103	0xbd614d98	-0.05500564
104	0xbc0763cd	-0.00826354
105	0x3d06be19	0.032896135
106	0xbdd5fd90	-0.10448754
107	0xbd28f22d	-0.04124658
108	0x3b68c5da	0.003551832
109	0x3d198041	0.037475828
110	0x3bcc56af	0.0062359194
111	0x3d696e61	0.05699003
112	0xbe03c06c	-0.12866372
113	0x3de9602c	0.113952965
114	0xbe0ef108	-0.13959134
115	0x3d465460	0.04842031
116	0xbc97aa30	-0.018513769
117	0x3cad9e2f	0.021193592
118	0xbdfd0d2d	-0.12356029
119	0x3e0ea071	0.13928391
120	0xbcf35661	-0.029704275
121	0xbcf0a7d7	-0.029376907
122	0xbd0c17c4	-0.034202352
123	0x3d26f51c	0.0407611
124	0x3d1c5a10	0.038171828
125	0x3e078411	0.13233973
126	0xbd3cf2ba	-0.04612992
127	0x3cc7c2a4	0.024384804
128	0x3d26a136	0.040681086
129	0xbdc3a81b	-0.09553548
130	0x3d83ca1a	0.06435032
131	0x3d7b8fb4	0.061416343
132	0xbd638a1e	-0.05555164
133	0xbad7b6af	-0.0016457642
134	0x3cbb7714	0.02288393
135	0xbd9a3005	-0.0752869
136	0xbd91da10	-0.0712167
137	0xbd5e4035	-0.05426045
138	0x3c35e954	0.011102993
139	0xbd7b2e35	-0.061323363
140	0x3e18ef34	0.14934999
141	0xbdbaacc2	-0.09114982
142	0x3df4f826	0.11961393
143	0xbc578872	-0.01315509
144	0xbcb77e88	-0.022399202
145	0xbd2a8a9f	-0.041636106
146	0xbdd17998	-0.1022827
147	0x3c34865c	0.011018362
148	0xbd61219d	-0.054963697
149	0xbd98c981	-0.07460309
150	0xbb16243c	-0.002290978
151	0x3d960033	0.07324257
152	0x3d1dbde4	0.038511172
153	0x3ce262fd	0.027635092
154	0xbce1f6ac	-0.027583443
155	0x3d8cefb9	0.06881661
156	0xbd7fc004	-0.06243898
157	0xbd9e782d	-0.077377655
158	0x3b6a6838	0.0035767686
159	0xbaa9f439	-0.0012966461
160	0x3dd04039	0.101684995
161	0x3d3e0c68	0.04639855
162	0x3dd7d955	0.105395
163	0x3dda8adb	0.10671016
164	0x3dbc3cd5	0.0919129
165	0x3e28e4ca	0.16493526
166	0xbccfda5c	-0.025372677
167	0xbd8cb1b7	-0.06869834
168	0xbdd9ed7d	-0.106410004
169	0xbd896b29	-0.06709892
170	0x3b3ad79b	0.0028509859
171	0xbd9399cd	-0.072070695
172	0x3d222db3	0.039594363
173	0x3d824a53	0.063618325
174	0x3d61cfc6	0.05512979
175	0x3c91fb56	0.017820042
176	0x3ce873e6	0.028375577
177	0xbd8dedc7	-0.06930118
178	0x3d656d14	0.056012228
179	0x3b42d64f	0.0029729789
180	0xbd80dcb7	-0.06292098
181	0x3d0dc55e	0.034612052
182	0x3dde0a6e	0.10841833
183	0x3db23799	0.08702011
184	0x3d05db5a	0.032679893
185	0x3d2fc64c	0.04291372
186	0x3db0337d	0.086035706
187	0xbcfc253b	-0.030779472
188	0xbc8ed79c	-0.017436795
189	0xbccb8444	-0.024843343
190	0xbd821284	-0.06351188
191	0xbc8aa10d	-0.016922498
192	0x3dc4e5f1	0.0961417
193	0xbd8178f4	-0.06321898
194	0xbc739e7e	-0.01486933
195	0x3cbe695b	0.023243597
196	0xbd28ba62	-0.041193374
197	0xbca37a00	-0.019955635
198	0x3dc8ae5a	0.0979888
199	0xbce24ba2	-0.027623955
200	0xbd0ebe82	-0.03484965
201	0x3d3d7886	0.04625752
202	0x3d4dca0c	0.050241515
203	0x3c67b318	0.01414182
204	0x3cf2024d	0.029542113
205	0x3d2375b1	0.03990716
206	0xbe068ed9	-0.1314043
207	0xbc33bb8c	-0.010970008
208	0x3cb2fbb2	0.021848533
209	0xbd3ce1a7	-0.046113636
210	0xbda2abd7	-0.07942932
211	0x3b5eda56	0.003400465
212	0xbd8cbd99	-0.068721004
213	0x3d3aebcd	0.045635033
214	0x3da5355c	0.08066818
215	0xbe070970	-0.13187194
216	0x3df597ed	0.11991868
217	0xbe40eaf6	-0.1883963
218	0xbd59d848	-0.053184777
219	0x3dbbca65	0.09169463
220	0x3d175530	0.036946476
221	0x3d822928	0.06355506
222	0x3cd03d4c	0.025419854
223	0xbca5a8e5	-0.020222137
224	0x3e032ecd	0.12810822
225	0xbe2b9a69	-0.16758122
226	0xbd8b01a4	-0.06787422
227	0xbce7594d	-0.028240824
228	0x3d9fbb70	0.07799423
229	0x3df4dafd	0.11955831
230	0xbd288b09	-0.04114822
231	0xbdf68745	-0.12037519
232	0xbcd1225b	-0.025529077
233	0x3d44f84b	0.048088353
234	0xbc0d29d5	-0.008615931
235	0xbcf45114	-0.029823817
236	0x3d9b84a6	0.0759366
237	0xbd6dd874	-0.058067754
238	0xbd054da2	-0.03254474
239	0x3a582081	0.00082445896
240	0x3dab0206	0.08349995
241	0x3d68917d	0.056779373
242	0xbd159b9a	-0.036525346
243	0x3b7dfc50	0.0038755126
244	0x3d4d5563	0.05013026
245	0x3c2c02c0	0.0104987025
246	0xbd2bdce8	-0.04195872
247	0xbe77b1ec	-0.24188966
248	0x3d346b2a	0.044047512
249	0xbda7ec54	-0.08199373
250	0xbc7f8249	-0.015595027
251	0x3d9a4648	0.07532936
252	0x3ce6ab81	0.028157951
253	0x3de52329	0.11188347
254	0xbb458b57	-0.0030142867
255	0xbd0b1519	-0.033955667

network_body._body_endoder.seq_layers.0.bias f4 [128]
0	0x3ca73dc0	0.020415187
1	0x3c095e5d	0.008384314
2	0x3d08eac4	0.033427015
3	0x3b2aa8ef	0.0026040634
4	0x3d23d43f	0.039997336
5	0x3b9d6164	0.0048028696
6	0x3ca723eb	0.02040287
7	0x3d92ebfc	0.07173917
8	0x3c1b5cdc	0.009482589
9	0x3c24b33a	0.010052497
10	0x3cde05dc	0.027102403
11	0x3c8d887e	0.017276999
12	0x3cb74d34	0.02237568
13	0x3d2d2bf6	0.042278253
14	0x3c55da43	0.013052526
15	0x3d0f9b66	0.03506031
16	0x3c9e9564	0.019358344
17	0x3cdeb168	0.027184203
18	0x3d008a62	0.031381972
19	0x3baa4440	0.0051961243
20	0x3becd9b3	0.0072281
21	0x3cad4ac7	0.02115382
22	0x3d2e93b6	0.042621337
23	0x3bd41427	0.006472129
24	0x3c9bcbd2	0.019018088
25	0x3d1c2681	0.038122658
26	0x3c10b968	0.008833267
27	0xbb6bb49e	-0.003596581
28	0x3d1d3cd0	0.038388073
29	0x3d161141	0.03663755
30	0x3ba78d38	0.00511327
31	0x3d0d0736	0.034430705
32	0x3ca02883	0.019550567
33	0x3d2ac30b	0.041689914
34	0x3c1ba87c	0.009500619
35	0x3c39de5f	0.011344521
36	0x3c68b635	0.014203598
37	0xbc847020	-0.016166747
38	0xbd2d99e9	-0.04238311
39	0x3d356f67	0.044295695
40	0x3bdfa84d	0.006825483
41	0x3be1c2c4	0.006889673
42	0x3cfb9eda	0.030715395
43	0x3bb9a31f	0.0056651975
44	0x3c68b6ff	0.014203786
45	0x3c210367	0.009827471
46	0xbc218811	-0.009859101
47	0xbcf46128	-0.029831484
48	0xbab18343	-0.0013543147
49	0x3d26ba46	0.040704988
50	0x3c733c27	0.014845884
51	0xbce66deb	-0.028128585
52	0xb763cc5c	-1.35778355e-05
53	0x3a9f764f	0.0012165996
54	0x3d471f91	0.04861409
55	0x3d1196c6	0.03554418
56	0x3be662a0	0.0070308
57	0x3c89d7f2	0.016826604
58	0x3bad2fdb	0.005285246
59	0xbce1b7c2	-0.027553443
60	0x3c0244c4	0.007950965
61	0x3c790db4	0.015201021
62	0x3d08be33	0.033384513
63	0x3a993725	0.0011689408
64	0xbb9f73b7	-0.004866089
65	0x3cfdcd67	0.030981733
66	0xbba0bd2c	-0.0049053635
67	0x3d056024	0.03256239
68	0x3b607050	0.003424663
69	0x3cdeb884	0.027187593
70	0x3d0aca55	0.033884365
71	0x3c204cd7	0.009783945
72	0x3ccc3d4f	0.024931578
73	0x3cc8bd9e	0.024504479
74	0x3c7acd2d	0.015307707
75	0x3caa6d01	0.02080393
76	0x3c7eaf45	0.015544717
77	0x3a695117	0.0008900328
78	0xbcaba703	-0.02095366
79	0xbbf0e850	-0.0073519126
80	0x3d210dd1	0.039319817
81	0x3d136085	0.03598072
82	0x3d065939	0.032799933
83	0x3cacd9a3	0.021099871
84	0xbc99cd6e	-0.018774714
85	0xbce11770	-0.027476996
86	0xbc1bf984	-0.009519938
87	0x3cc34c3b	0.02384006
88	0x3cdea3b7	0.027177675
89	0x3ca97455	0.020685354
90	0x3af95898	0.0019023595
91	0x3c01a60f	0.007913127
92	0xbce7ce09	-0.028296487
93	0x3d27c3c8	0.040958196
94	0x3d50f6c6	0.05101659
95	0x3cdf0bef	0.02722737
96	0x3c996d73	0.018728947
97	0x3c569b68	0.013098575
98	0x3cfe115f	0.031014143
99	0xbb87cb06	-0.0041440753
100	0xbcc2135a	-0.023690868
101	0x3c942a90	0.018086702
102	0xbc8ae355	-0.016954103
103	0x3c0fa179	0.008766525
104	0x3c04f04e	0.008113934
105	0x3c85cdb6	0.016333442
106	0xbb9470a2	-0.0045300284
107	0x3cc472e7	0.023980571
108	0x3c8ac16d	0.016937936
109	0x3c9192d4	0.017770208
110	0x3d0c0091	0.034180228
111	0x3d5a4735	0.053290565
112	0xbc1bfd30	-0.009520814
113	0x3c64ad86	0.013957387
114	0x3ccb2976	0.024800044
115	0x3d3bbba3	0.04583324
116	0x3c869f92	0.01643351
117	0x3bfd9263	0.007738398
118	0x3d00526d	0.031328607
119	0x3c958c20	0.018255293
120	0x38ece03e	0.00011295125
121	0x3c34120e	0.010990633
122	0x3cb5ff10	0.02221635
123	0x3c34a1a3	0.011024865
124	0xbad34521	-0.0016118624
125	0x3cfc2ff2	0.03078458
126	0x3ba74518	0.005104672
127	0x3c1558be	0.009115396

network_body._body_endoder.seq_layers.2.weight f4 [128, 128]
0	0xbd88e59e	-0.06684421
1	0xbdb3cba9	-0.087790795
2	0x3e5f0413	0.21778898
3	0xbe48a35c	-0.19593567
4	0xbc71f539	-0.014767938
5	0x3c9d9ce8	0.019239858
6	0x3d81cc2d	0.063377716
7	0x3df96260	0.12176967
8	0xbd8682d8	-0.06567925
9	0x3d76c80e	0.06024938
10	0xbcb71a5c	-0.022351436
11	0x3e1ba94d	0.15201302
12	0xbc3442a2	-0.011002215
13	0x3e0d1129	0.13776077
14	0xbd970d7f	-0.07375621
15	0x3d95785b	0.072983466
16	0x3ce42bb9	0.02785288
17	0x3d0fd39b	0.035113912
18	0xbda1720f	-0.07883083
19	0xbce56b2c	-0.028005205
20	0x3dac5090	0.084138036
21	0x3d087cd0	0.033322155
22	0xbda1ed2d	-0.07906566
23	0xbde69f25	-0.11260823
24	0xbdea526f	-0.11441504
25	0xba6f0198	-0.0009117364
26	0xbe5e2c84	-0.21696669
27	0xbe767fd3	-0.24072199
28	0x3e7dc666	0.24782714
29	0x3dff1d62	0.12456776
30	0xbe249a4e	-0.16074488
31	0x3d289362	0.04115618
32	0x3e6a508f	0.22882293
33	0x3e1dbc65	0.15403898
34	0x3b722279	0.0036946817
35	0xbd79c0fb	-0.060975056
36	0xbe363339	-0.17792977
37	0xbe03f8ef	-0.1288793
38	0xbdab2c8b	-0.08358105
39	0xbcced24a	-0.025246758
40	0xbe811dcb	-0.25218043
41	0xbdc5fbb6	-0.09667151
42	0x3de7504d	0.11294613
43	0xbdb43071	-0.08798302
44	0x3c1b236e	0.009468896
45	0xbd94a7c0	-0.07258558
46	0xbd9dbe61	-0.077023275
47	0x3dcfa9f3	0.10139837
48	0x3d8ae3a5	0.06781701
49	0x3e69531f	0.22785614
50	0x3d631a34	0.05544491
51	0xbde3b18a	-0.11117847
52	0xbda84736	-0.082167074
53	0xbe0a6a5e	-0.13517138
54	0xbd961999	-0.07329101
55	0x3d68ca9b	0.056833845
56	0xbdebe712	-0.115186825
57	0x3d4eeb91	0.050517622
58	0xbd86cbfd	-0.065818764
59	0xbdc76045	-0.09735159
60	0xbda1293a	-0.078691915
61	0xbdc05e4f	-0.09392988
62	0x3d6504e7	0.05591288
63	0x3d913ac6	0.07091288
64	0xbe562755	-0.20913441
65	0x3de1ddd8	0.110286415
66	0xbdbe5b5b	-0.092947684
67	0x3dea1879	0.11430449
68	0x3de5c8e8	0.112199605
69	0x3cd8bdda	0.026457716
70	0x3e202539	0.156392
71	0x3b05da0a	0.002042415
72	0x3e529f01	0.20568468
73	0x3da484af	0.0803312
74	0x3d218725	0.039435524
75	0x3d35a4e8	0.04434672
76	0x3dda18ab	0.10649236
77	0xbe11d948	-0.14243042
78	0xbdf5735a	-0.11984892
79	0x3d6f839a	0.058475114
80	0xbc111cbe	-0.00885695
81	0x3d97020c	0.07373437
82	0x3cb08f8a	0.02155282
83	0xbce16123	-0.027512139
84	0xbdcebef6	-0.10095017
85	0xbda18a57	-0.07887714
86	0xbe2921ed	-0.16516848
87	0xbd890062	-0.06689526
88	0x3d4f3103	0.05058385
89	0xbdab927e	-0.083775505
90	0xbdb51072	-0.08841027
91	0xbe0e0783	-0.13870053
92	0xbc498291	-0.012299196
93	0xbcb12fd9	-0.02162926
94	0x3e05241e	0.13002059
95	0x3d08d8b8	0.033409804
96	0x3ddffa73	0.10936441
97	0x3d160468	0.036625296
98	0x3d72c415	0.05926903
99	0xbbb1befc	-0.0054243784
100	0xbd318fd2	-0.04335005
101	0xbd24d1eb	-0.040239256
102	0xbe276b3a	-0.16349497
103	0x3ccecc32	0.025243852
104	0x3cb4be75	0.022063473
105	0x3d90c165	0.07068137
106	0xbe32d091	-0.17462374
107	0x3dedfc4a	0.11620386
108	0x3e08e757	0.13369499
109	0x3de3ea65	0.111286916
110	0x3ca6a9b5	0.020344594
111	0x3d6fa589	0.058507476
112	0x3d3e15ec	0.046407625
113	0xbe290aab	-0.16507976
114	0x3dcc7134	0.09982529
115	0x3e071b59	0.13194026
116	0x3d172a81	0.03690577
117	0xbe2a7b81	-0.16648676
118	0x3dc87e5a	0.09789725
119	0xbd9eeae4	-0.077596456
120	0xbda06044	-0.07830861
121	0xbddb58a0	-0.10710263
122	0x3d5127db	0.0510634
123	0x3cd6d291	0.026223453
124	0xbdbf268f	-0.09333526
125	0x3e191ced	0.1495244
126	0x3d3dd393	0.04634435
127	0x3e409969	0.18808521
128	0x3e19a40d	0.15003987
129	0xbdd134d1	-0.10215152
130	0x3d5e7b20	0.05431664
131	0xbd139b6d	-0.036036897
132	0xbd99a9d0	-0.07503092
133	0xbd5dc319	-0.054141138
134	0xbb5a1bb0	-0.0033280663
135	0x3a1a4640	0.0005885102
136	0xbbfe660e	-0.0077636307
137	0xbe32acaa	-0.17448679
138	0x3d819e8d	0.06329069
139	0x3d80a1d0	0.06280863
140	0xbc9f17da	-0.019420553
141	0x3cd544c7	0.026033772
142	0xbda5833b	-0.08081671
143	0x3dffe0e9	0.1249407
144	0xba013a27	-0.0004929625
145	0x3e5c7444	0.21528727
146	0x3d660f37	0.056166854
147	0xbd69be7b	-0.057066422
148	0x3d9fa2ee	0.07794748
149	0x3e2e4ec8	0.1702224
150	0x3db5717d	0.08859537
151	0xbd9a139b	-0.07523271
152	0xbd7610d3	-0.06007464
153	0x3e416d11	0.18889262
154	0xbe1b548b	-0.1516897
155	0xbe66ac77	-0.22526728
156	0x3e9d31b0	0.3070197
157	0x3dfb4285	0.12268547
158	0xbdb3fbbc	-0.08788249
159	0x3dedf716	0.116193935
160	0x3df36cae	0.118859634
161	0x3e77dccb	0.2420532
162	0xbddd5a6a	-0.10808261
163	0xbe3c83f0	-0.18409705
164	0xbe1883ed	-0.14894076
165	0xbe18c4e4	-0.14918858
166	0xbcab316e	-0.020897593
167	0x3dadc571	0.084849246
168	0xbdd43215	-0.10361115
169	0xbe094baa	-0.1340777
170	0x3c15b105	0.009136443
171	0x3db5a4e1	0.08869339
172	0x3dd228a0	0.10261655
173	0x3deea905	0.11653332
174	0xbd23437e	-0.039859287
175	0xbdf672af	-0.12033593
176	0x3e11628c	0.14197749
177	0xbd41cc64	-0.047314063
178	0x3e0af27c	0.13569063
179	0x3e3b5598	0.1829437
180	0xbdacba3a	-0.084339574
181	0xbdad7d4a	-0.084711626
182	0x3aa9b9ee	0.0012949088
183	0xbc8eebf7	-0.017446501
184	0xbd6a43ed	-0.057193685
185	0xbcc3ea05	-0.0239153
186	0xbd8451e1	-0.0646093
187	0x3d6672e2	0.056261905
188	0xbe207ba8	-0.15672171
189	0xbe268a97	-0.16263805
190	0x3dabd18e	0.08389579
191	0xbd63c923	-0.05561174
192	0xbd102317	-0.035189714
193	0x3e406ef0	0.1879232
194	0xbe0b7ee0	-0.13622618
195	0xbda74d03	-0.08168986
196	0xbc698c26	-0.014254605
197	0x3e575b7c	0.21030992
198	0x3d3e2c1d	0.04642879
199	0xbda6fdc9	-0.081538744
200	0x3e26c9a5	0.16287859
201	0x3e2c612d	0.16833945
202	0x3df6a0ce	0.1204239
203	0x3e3b1190	0.18268418
204	0x3e7f401e	0.24926803
205	0xbd6fd503	-0.058552753
206	0x3c34108f	0.010990276
207	0x3d22a031	0.03970355
208	0x3cf5bb23	0.02999646
209	0xbd2d9593	-0.042378973
210	0x3dbd3a1d	0.092396
211	0xbcfa692f	-0.030567734
212	0xbe0e2abe	-0.13883492
213	0xbcaded48	-0.021231309
214	0xbdc0c15b	-0.0941188
215	0x3d97be40	0.07409334
216	0x3cff9f97	0.031204028
217	0xbd966aef	-0.07344615
218	0xbe16af56	-0.14715323
219	0xbc54d79a	-0.012990857
220	0xbd8e64be	-0.06952809
221	0x3dc88f3b	0.09792944
222	0x3cb899ec	0.022534333
223	0xbbda9174	-0.0066701714
224	0xbc8102a0	-0.015748322
225	0xbdc5d039	-0.09658856
226	0x3e509341	0.20368673
227	0x3c0eb19d	0.0087093385
228	0xbd5e0246	-0.054201387
229	0x3e4ee038	0.2020272
230	0xbad5203e	-0.0016260219
231	0x3c1c001d	0.009521511
232	0x3d06bd32	0.032895274
233	0x3c82c33b	0.015962234
234	0x3da416b8	0.08012146
235	0x3e8d8118	0.27637553
236	0x3de3a79f	0.111159556
237	0x3dbe7717	0.09300058
238	0x3e2cae5d	0.1686339
239	0xbda20ac7	-0.07912212
240	0x3c9d4be5	0.019201228
241	0xbd880677	-0.06641858
242	0x3e2d4843	0.16922097
243	0x3cbc3af7	0.022977335
244	0x3d74f679	0.059805367
245	0xbd378231	-0.044801895
246	0xbc9ed567	-0.019388868
247	0x3d7ef87a	0.062248684
248	0xbd0e1918	-0.0346919
249	0x3c48b5a6	0.01225034
250	0x3da0f0d4	0.07858434
251	0xbdcd202b	-0.10015901
252	0xbdfe2182	-0.12408735
253	0x3dd910b7	0.10598891
254	0x3e309a9d	0.1724648
255	0xbe013982	-0.12619594

network_body._body_endoder.seq_layers.2.bias f4 [128]
0	0x3d0639e3	0.03277005
1	0x3cb7a48d	0.022417331
2	0x3cadb7f6	0.021205883
3	0x3c5686dc	0.013093676
4	0x3cc7f596	0.024409097
5	0x3cce1272	0.02515528
6	0x3c8f97ad	0.01752838
7	0x3bc1fa9f	0.005919769
8	0x3c99eb43	0.01878894
9	0x3a45ecc1	0.00075502327
10	0x3c861052	0.016365204
11	0x3c9228d0	0.017841727
12	0x3d15609f	0.0364691
13	0x3c06d508	0.008229502
14	0x3ca78af9	0.02045201
15	0x3cf414cc	0.029795073
16	0x3c18cf07	0.009326703
17	0x3c2dfc72	0.01061927
18	0x3c4ac951	0.012377099
19	0x3ca42d15	0.020041028
20	0x3bddd56d	0.006769827
21	0x3d1e6f2d	0.038680244
22	0x3d2462d9	0.04013333
23	0xbb4785c6	-0.0030444725
24	0x3d10a6b3	0.035315227
25	0x3cd6b810	0.026210815
26	0x3b866315	0.004101167
27	0x3c4e59fb	0.012594695
28	0x3c30c9cb	0.010790299
29	0x3d0216bc	0.031759962
30	0x3babff56	0.0052489443
31	0x3c9eac06	0.019369137
32	0x3ca9be81	0.020720722
33	0x3c9a0202	0.018799786
34	0x3c9fb7a4	0.019496746
35	0x3c002489	0.007821211
36	0x3b765326	0.0037586181
37	0x3d1d741b	0.038440805
38	0x3c0aa891	0.008463041
39	0x3ca2bed5	0.019866386
40	0x3c0c9667	0.008580781
41	0x3d09e60d	0.03366666
42	0x3c9b85a3	0.018984621
43	0x3c441cbf	0.011969744
44	0x3cbc97e3	0.023021644
45	0x3c850bd2	0.016240988
46	0x3d04fb9a	0.03246651
47	0x3c5b17a3	0.013372335
48	0x3c559dfa	0.013038153
49	0x3cd06d8a	0.025442857
50	0x3c824dc8	0.01590623
51	0x3ce00826	0.027347635
52	0x3ca74bf6	0.020421963
53	0x3b8dd43a	0.004328278
54	0x3c945093	0.018104827
55	0x3c2fef8f	0.010738268
56	0x3b0356a1	0.0020040649
57	0x3d10dcf2	0.03536696
58	0x3ce7a5a3	0.028277224
59	0x3c88912a	0.016670782
60	0x3c977367	0.018487645
61	0x3cb90ed8	0.022590086
62	0x3b52ffaa	0.0032195845
63	0x3ca9d097	0.020729346
64	0x3c066eda	0.00820514
65	0x3d0a2701	0.033728603
66	0x3cacafc3	0.021079903
67	0x3d11112b	0.035416763
68	0x3cf27c53	0.029600298
69	0x3c95feb1	0.018309923
70	0x3c9857ab	0.01859649
71	0x3c855cf6	0.016279679
72	0x3ce01ac7	0.027356518
73	0x3c15116e	0.009098394
74	0x3c864c49	0.016393797
75	0x3c682e4c	0.014171194
76	0x3ce879a3	0.028378313
77	0x3ce748ae	0.028232899
78	0x3c704bff	0.014666556
79	0x3b63c8ee	0.0034757215
80	0x3bf5b440	0.007498294
81	0x3cb87407	0.022516264
82	0x3d10656e	0.03525298
83	0x3c1de574	0.009637225
84	0x3ceda30f	0.029008416
85	0x3c58a1e7	0.013222194
86	0x3d3cb681	0.046072487
87	0x3c332e66	0.010936355
88	0x3cdc333e	0.026879903
89	0x3cfbccb3	0.030737257
90	0x3cad1db2	0.021132324
91	0x3c746d5b	0.0149186505
92	0x3c718d62	0.014743181
93	0x3cde3648	0.027125493
94	0x3cce5779	0.025188195
95	0x3ce04f5a	0.027381588
96	0x3c42920a	0.011875639
97	0x3c2c2bfc	0.010508534
98	0x3c2287f7	0.009920112
99	0x3c5691ee	0.013096316
100	0x3c71dc5f	0.014762013
101	0x3bbd9ba5	0.0057863765
102	0x3c576f18	0.013149045
103	0x3bc0b2fd	0.005880712
104	0x3cc3db40	0.023908257
105	0x3bd20ac6	0.0064099757
106	0x3cca0ec2	0.02466524
107	0x3ca15e69	0.019698339
108	0x3c6882e7	0.014191366
109	0x3ccfc173	0.025360798
110	0xbb7bf390	-0.0038444735
111	0x3c0e7192	0.008694069
112	0x3d10d4a9	0.03535906
113	0x3c72b0cc	0.0148126595
114	0x3ba001c4	0.004883023
115	0x3c02df63	0.00798783
116	0x3ce938ae	0.02846941
117	0x3cf9ea95	0.030507365
118	0x3c86871a	0.016421843
119	0x3ccb36b1	0.024806352
120	0x3d020d75	0.031751115
121	0x3cd2583e	0.025676843
122	0x3c6b4fb2	0.014362263
123	0x3d410c64	0.047130957
124	0x3ce70ee6	0.028205346
125	0x3cac95a8	0.021067455
126	0x3c8acec9	0.016944306
127	0x3d2f28f0	0.04276365

action_model._discrete_distribution.branches.0.weight f4 [2, 128]
0	0xbdf033fc	-0.11728665
1	0xbe01bda9	-0.12670006
2	0x3dbfebe9	0.09371168
3	0x3cecf951	0.028927477
4	0x3d80c074	0.062867075
5	0xbdcdc7ee	-0.10047899
6	0xbd8fa9b5	-0.07014791
7	0x3d903a82	0.070424095
8	0xbd7f55ba	-0.062337615
9	0x3d89f04e	0.067352876
10	0x3d5b79a2	0.053582795
11	0x3db03069	0.086029835
12	0xbe1c5b53	-0.15269212
13	0xbdaa1b84	-0.083060294
14	0xbdc0ec73	-0.09420099
15	0xbe0befda	-0.13665715
16	0x3d99e854	0.07515016
17	0x3db0bc48	0.08629662
18	0x3dcbca31	0.09950674
19	0x3deadec4	0.114682704
20	0x3db0f3b7	0.08640235
21	0xbe195e70	-0.14977431
22	0xbe1e6819	-0.15469398
23	0x3d3c36e4	0.045950785
24	0x3e1a13ed	0.15046664
25	0xbe0254ea	-0.12727705
26	0x3d60b6c0	0.054861784
27	0x3db61231	0.088901885
28	0x3dc6c3e3	0.09705331
29	0xbdb7e52b	-0.08979257
30	0x3daa5990	0.08317864
31	0xbd91b686	-0.07114892
32	0xbda5da52	-0.08098282
33	0xbda35e0d	-0.07976923
34	0xbdb46582	-0.088084236
35	0x3db65b52	0.08904137
36	0x3d40f988	0.04711297
37	0xbe0eb62f	-0.13936685
38	0x3d6dc249	0.058046613
39	0xbdac339e	-0.08408283
40	0x3d981e40	0.07427645
41	0x3d9c09d3	0.07619061
42	0xbd862a31	-0.06551016
43	0x3dbff680	0.09373188
44	0xbd7f4fa7	-0.06233182
45	0x3de4d91a	0.11174221
46	0xbe262c4b	-0.16227834
47	0xbd5bb184	-0.05363609
48	0x3ddb6a41	0.10713626
49	0xbddd4448	-0.10804039
50	0xbd86437e	-0.06555842
51	0x3dd4ed30	0.103968024
52	0xbddd3123	-0.10800388
53	0x3daf28fb	0.08552738
54	0x3da7c817	0.08192461
55	0x3dc33817	0.09532183
56	0x3da477c7	0.08030658
57	0xbe09a5c5	-0.13442142
58	0xbdce0342	-0.10059215
59	0xbd925dbd	-0.071467854
60	0x3d7fb357	0.06242689
61	0xbdef54c5	-0.116860904
62	0x3ddb9a66	0.107228085
63	0x3daa1e13	0.083065175
64	0xbd5ad29c	-0.05342351
65	0xbdfe0d55	-0.12404887
66	0xbd95036a	-0.07276042
67	0xbded6bdc	-0.11592838
68	0x3dce193f	0.10063409
69	0xbda6ba5a	-0.081410125
70	0xbd94d5cb	-0.0726734
71	0x3d9100a6	0.07080202
72	0xbdb56826	-0.08857755
73	0x3d9b26de	0.07575773
74	0x3d75beb4	0.05999632
75	0x3daf8d84	0.08571914
76	0xbdd09abe	-0.10185765
77	0x3dc2deb1	0.09515131
78	0x3da78bbf	0.08180951
79	0x3d924c6d	0.07143483
80	0x3daa74bc	0.083230466
81	0xbda515cf	-0.080608
82	0xbdf54986	-0.11976914
83	0x3db778aa	0.08958562
84	0xbdd19dcf	-0.10235178
85	0x3dd3e330	0.10346067
86	0xbe184bf8	-0.1487273
87	0x3db83b8a	0.08995731
88	0xbdd83e7e	-0.105587944
89	0x3d9efa31	0.07762564
90	0xbd9a5dc3	-0.07537415
91	0xbd876699	-0.06611366
92	0x3d31d949	0.04342011
93	0xbdee6c0e	-0.116417035
94	0x3dada972	0.08479585
95	0x3deb7bcf	0.11498224
96	0x3de6e7f1	0.11274708
97	0x3da53442	0.08066608
98	0x3db88c83	0.090111755
99	0x3d8d9b13	0.06914344
100	0xbd5fbc2a	-0.054622807
101	0x3da5c00f	0.08093273
102	0x3ddbcb1b	0.10732099
103	0x3dac6e08	0.08419424
104	0xbdb15b1d	-0.086599566
105	0xbd26e737	-0.040747847
106	0xbdae09aa	-0.08497937
107	0xbda6a06e	-0.08136068
108	0x3dc937d5	0.09825102
109	0xbdd314fa	-0.10306735
110	0x3d34b923	0.044121873
111	0x3dab6db1	0.08370531
112	0xbdec9073	-0.11550989
113	0xbd121e44	-0.035673395
114	0x3d8b7811	0.0681001
115	0x3dab03e9	0.08350355
116	0xbdf20e9f	-0.11819195
117	0x3dc7d1bb	0.097568
118	0xbd6aada2	-0.057294495
119	0xbdbe362c	-0.09287676
120	0xbdcd9b8d	-0.100394346
121	0xbdcfaf0e	-0.10140811
122	0x3de550be	0.11197041
123	0xbdf57867	-0.119858555
124	0xbdc33775	-0.09532062
125	0x3daf62b0	0.08563745
126	0x3da4f0f4	0.08053771
127	0xbe1bad9e	-0.15202948
128	0x3df771ee	0.12082277
129	0x3e06cc78	0.13163936
130	0xbdf51993	-0.119677685
131	0xbcd2f05a	-0.025749374
132	0xbd7ef7e7	-0.062248137
133	0x3dc16cb4	0.094445616
134	0x3db18a65	0.08668975
135	0xbd8f7b99	-0.07005996
136	0x3d5c2acf	0.053751763
137	0xbd90badf	-0.07066893
138	0xbd96ec6f	-0.07369315
139	0xbdb86dc6	-0.090053126
140	0x3e290a21	0.1650777
141	0x3da4d064	0.0804756
142	0x3dbbdd9e	0.091731295
143	0x3e0f9cee	0.14024708
144	0xbda55d5b	-0.08074447
145	0xbda8be30	-0.082394004
146	0xbda7e1db	-0.081973754
147	0xbdd73cab	-0.10509618
148	0xbdcaaa5b	-0.09895774
149	0x3e1eba21	0.1550069
150	0x3e17638e	0.14784071
151	0xbd590c97	-0.052990522
152	0xbe004c70	-0.12529159
153	0x3e03264c	0.12807578
154	0xbd7b6a44	-0.06138064
155	0xbdbfe0fb	-0.093690835
156	0xbd9db4eb	-0.07700523
157	0x3ddb6791	0.10713113
158	0xbd882e37	-0.0664944
159	0x3d747bc9	0.059688363
160	0x3d94236e	0.0723332
161	0x3da761a6	0.08172922
162	0x3dac7307	0.08420377
163	0xbdb02e51	-0.08602584
164	0xbd88b4da	-0.0667512
165	0x3e1a0371	0.15040375
166	0xbd7f39fa	-0.06231115
167	0x3dd46cc0	0.10372305
168	0xbd92bc99	-0.071648784
169	0xbd88ab5b	-0.066733085
170	0x3d812eb8	0.06307739
171	0xbdb076ce	-0.0861641
172	0x3d58e8cf	0.0529564
173	0xbde1d76e	-0.11027418
174	0x3e12c42f	0.1433265
175	0x3d4d7cf2	0.050167985
176	0xbddfa0d2	-0.10919346
177	0x3dbdfa56	0.092762634
178	0x3d8cf56a	0.068827465
179	0xbdc96263	-0.09833219
180	0x3e03374e	0.12814066
181	0xbdac5ed3	-0.08416524
182	0xbda6dfe9	-0.08148176
183	0xbdb5f9b2	-0.08885516
184	0xbd9affb7	-0.07568305
185	0x3e065e73	0.13121967
186	0x3dd02e57	0.101650886
187	0x3d67717e	0.05650472
188	0xbd793da6	-0.06084981
189	0x3daf67d4	0.085647255
190	0xbda764a1	-0.0817349
191	0xbd7b2d3e	-0.061322443
192	0x3d77c666	0.060491942
193	0x3de5c51c	0.11219236
194	0x3d83bb3e	0.06432198
195	0x3de8aa56	0.11360614
196	0xbdda20d9	-0.106507964
197	0x3db78b0d	0.08962069
198	0x3d80d123	0.0628989
199	0xbdaa6230	-0.08319509
200	0x3dc70701	0.09718133
201	0xbd9b2479	-0.07575316
202	0xbd84ed67	-0.064905934
203	0xbda109d2	-0.07863201
204	0x3dd1b93e	0.1024041
205	0xbdbcdeae	-0.0922216
206	0xbdb197ac	-0.08671507
207	0xbdb99888	-0.09062296
208	0xbd591650	-0.052999794
209	0x3d952d16	0.0728399
210	0x3def3874	0.116806895
211	0xbdaafeaa	-0.083493546
212	0x3da99cef	0.08281886
213	0xbd97b3e8	-0.07407361
214	0x3e3e035b	0.18555968
215	0xbd9effac	-0.07763609
216	0x3dee5c7a	0.11638732
217	0xbd890046	-0.06689505
218	0x3db8d60e	0.09025203
219	0x3d5afc4a	0.053463258
220	0xbd706410	-0.058689177
221	0x3e031fd7	0.12805115
222	0xbd9045e5	-0.07044581
223	0xbdf498a6	-0.11943178
224	0xbdbdcc73	-0.09267511
225	0xbdb49c25	-0.08818845
226	0xbda0b9b4	-0.0784792
227	0xbd869d38	-0.06572956
228	0x3d519576	0.051167928
229	0xbdb4eacf	-0.08833849
230	0xbddf281f	-0.10896324
231	0xbdb28a08	-0.087177336
232	0x3da58ddc	0.08083698
233	0x3d642458	0.055698723
234	0x3db1631d	0.086614825
235	0x3d9d1b33	0.076712035
236	0xbdc1d521	-0.09464479
237	0x3df6780a	0.120346144
238	0xbcdd9ffb	-0.027053824
239	0xbd96f332	-0.073706046
240	0x3decb85a	0.115586
241	0x3d545e8c	0.05184798
242	0xbd728ad2	-0.05921442
243	0xbd809790	-0.06278908
244	0x3ddb4727	0.107069306
245	0xbd989717	-0.07450693
246	0x3d65db58	0.056117386
247	0x3dc889a3	0.09791877
248	0x3da85128	0.08218604
249	0x3db12e65	0.08651427
250	0xbdd09b5a	-0.10185881
251	0x3dfdf820	0.12400842
252	0x3dc7dcb5	0.097588934
253	0xbd959a09	-0.073047705
254	0xbd9126a7	-0.070874505
255	0x3e115c80	0.14195442

action_model._discrete_distribution.branches.0.bias f4 [2]
0	0xbc09fb6d	-0.008421761
1	0x3c09fbbc	0.008421835
