SteroMadness12/StereoMadness/StereoMadness-999988.onnx (onnx, 200057 bytes, 6 tensors)

network_body._body_endoder.seq_layers.0.weight f4 [128, 249]
0.021378065 0.12635721 -0.036210142 -0.11038641 0.11182183 0.05905747 -0.007219367 0.07288535
0.06287255 -0.15936424 0.045122325 -0.0077430336 -0.006595579 -0.04020072 -0.0005422835 0.087226965
-0.15507564 -0.11823168 0.25740224 0.002119286 -0.040248726 0.07019218 0.020945704 0.05397984
0.082912534 0.026232582 -0.013525888 -0.060610283 0.045606576 0.12723523 0.07709069 -0.0631262
-0.03598727 -0.11018444 -0.0471687 0.06295722 0.111069925 -0.018285332 -0.02231463 0.037387375
-0.019668326 -0.070692316 -0.084261164 -0.09627643 -0.024721894 -0.018936018 -0.0022448953 -0.0175587
0.03962579 -0.062217496 -0.023216045 0.023480967 -0.07404764 -0.03928757 0.05621288 -0.042574894
-1.6291506e-05 -0.07029953 -0.029274212 -0.015661767 -0.05762042 0.07205676 0.04082007 -0.039381023
-0.04453879 -0.075228296 0.108295575 -0.0439068 -0.071428016 0.086385556 0.106246665 0.08867824
-0.06006079 -0.08806261 -0.0145181455 -0.007167926 0.0039584935 0.054082543 0.011380877 0.028892344
0.081931226 0.006458701 -0.046823554 0.02624261 -0.035728272 -0.004845256 -0.098327935 0.059621174
-0.06704073 0.14327115 0.024974875 0.049425203 0.037602227 0.0068174736 -0.071643166 -0.028286742
-0.0755002 -0.014532428 0.070854194 0.060669225 -0.010988688 0.087571576 -0.026928106 -0.05500564
-0.00826354 0.032896135 -0.090788156 -0.045458443 0.003551832 0.037475828 0.0062359194 0.05699003
-0.13228463 0.11033189 -0.13549662 0.04842031 -0.018513769 0.021193592 -0.1196118 0.13703983
-0.029704275 -0.029376907 -0.034202352 0.0407611 0.034551315 0.12871915 -0.048255924 0.024384804
0.040681086 -0.09553548 0.064350285 0.062881224 -0.05555164 -0.0016457642 0.02288393 -0.0752869
-0.07483715 -0.057881106 0.008657908 -0.061323363 0.14934999 -0.09114982 0.11961393 -0.017340433
-0.022399202 -0.041636106 -0.1022827 0.011018362 -0.05858415 -0.078223765 -0.0042323824 0.07324257
0.038511172 0.027635092 -0.027583443 0.06301619 -0.06243898 -0.077377655 0.0035767686 -0.0012966461
0.09806455 0.042777896 0.104189225 0.10671016 0.0919129 0.16493526 -0.025372677 -0.07391832
-0.106410004 -0.06709892 0.0028509859 -0.072070695 0.03597391 0.059997752 0.053498346 0.017820042
0.028375577 -0.06930118 0.056012228 -0.0022633695 -0.06292098 0.034612052 0.10841833 0.08702011
0.02905945 0.039293054 0.08404964 -0.030779472 -0.017436795 -0.024843343 -0.06351188 -0.02782797
0.0961417 -0.06321898 -0.01486933 0.023243597 -0.04482198 -0.023583954 0.09585474 -0.027623955
-0.03484965 0.04625752 0.050241515 0.0002613665 0.029542113 0.03990716 -0.1314043 -0.010970008
0.018219989 -0.049742 -0.07932063 0.003400465 -0.068721004 0.045635033 0.08066818 -0.1445683
0.11991868 -0.1883963 -0.053184777 0.09169463 0.033317868 0.05992678 0.026008755 -0.020222137
0.12810822 -0.16758122 -0.06787422 -0.042274617 0.07799423 0.11955831 -0.04114822 -0.12037519
-0.029157622 0.044459987 -0.014072281 -0.029823817 0.0759366 -0.058067754 -0.03254474 -0.023842238
0.08349995 0.056779373 -0.036525346 0.0038755126 0.04650166 0.0068703215 -0.03703374 -0.22107096
0.044047512 -0.08199373 -0.015595027 0.07532936 0.028157951 0.08430184 -0.012522478 -0.031876452
00000000: 0d21 af3c c963 013e 1651 14bd 4512 e2bd
00000010: d802 e53d 3fe6 713d 7190 ecbb ea44 953d
00000020: 53c3 803d 6130 23be 30d2 383d 46b9 fdbb
00000030: ba1f d8bb 83a9 24bd 0828 0eba 0da4 b23d
00000040: 26cc 1ebe 7323 f2bd 3aca 833e b8e3 0a3b
00000050: d9db 24bd ebc0 8f3d 5396 ab3c f719 5d3d
00000060: 0cce a93d b6e5 d63c b09b 5dbc 7d42 78bd
00000070: f6cd 3a3d f449 023e b9e1 9d3d 4f48 81bd
00000080: 6367 13bd 61a8 e1bd f733 41bd b7ef 803d
00000090: a178 e33d 1fcb 95bc 2ccd b6bc 8123 193d
000000a0: 781f a1bc 22c7 90bd 1e91 acbd 942c c5bd
000000b0: 9285 cabc b51f 9bbc 181f 13bb 43d7 8fbc
000000c0: a74e 223d c6d7 7ebd 932f bebc 285b c03c
000000d0: 4aa6 97bd 01ec 20bd 7a3f 663d 0363 2ebd
000000e0: bea9 88b7 33f9 8fbd 79d0 efbc 1b4d 80bc
000000f0: 6403 6cbd 7f92 933d f232 273d ff4d 21bd
00000100: 4e6e 36bd 4b11 9abd 12ca dd3d 9ed7 33bd
00000110: da48 92bd e9ea b03d da97 d93d f09c b53d
00000120: 4e02 76bd 2b5a b4bd 84dd 6dbc ece0 eabb
00000130: 40b6 813b a885 5d3d dc76 3a3c a3af ec3c
00000140: 8fcb a73d 83a3 d33b 0eca 3fbd befa d63c
00000150: cf57 12bd f4c4 9ebb 2860 c9bd 5535 743d
00000160: a64c 89bd acb5 123e 1c98 cc3c 1572 4a3d
00000170: cb04 1a3d 1d65 df3b a7b9 92bd 99b9 e7bc
00000180: d99f 9abd 6c19 6ebc 011c 913d 4b80 783d
00000190: e609 34bc ba58 b33d 5598 dcbc 984d 61bd
000001a0: cd63 07bc 19be 063d 24ef b9bd a232 3abd
000001b0: dac5 683b 4180 193d af56 cc3b 616e 693d
000001c0: 9f75 07be b0f5 e13d a0bf 0abe 6054 463d
000001d0: 30aa 97bc 2f9e ad3c 08f7 f4bd 2b54 0c3e
000001e0: 6156 f3bc d7a7 f0bc c417 0cbd 1cf5 263d
000001f0: ae85 0d3d f4ce 033e 01a8 45bd a4c2 c73c
00000200: 36a1 263d 1ba8 c3bd 15ca 833d dfc7 803d
00000210: 1e8a 63bd afb6 d7ba 1477 bb3c 0530 9abd
00000220: 3844 99bd bd14 6dbd e6d9 0d3c 352e 7bbd
00000230: 34ef 183e c2ac babd 26f8 f43d 860d 8ebc
00000240: 887e b7bc 9f8a 2abd 9879 d1bd 5c86 343c
00000250: eff5 6fbd c833 a0bd ccaf 8abb 3300 963d
00000260: e4bd 1d3d fd62 e23c acf6 e1bc a20e 813d
00000270: 04c0 7fbd 2d78 9ebd 3868 6a3b 39f4 a9ba
00000280: 11d6 c83d e037 2f3d 2961 d53d db8a da3d
00000290: d53c bc3d cae4 283e 5cda cfbc 7d62 97bd
000002a0: 7ded d9bd 296b 89bd 9bd7 3a3b cd99 93bd
000002b0: 6159 133d 34c0 753d 1521 5b3d 56fb 913c
000002c0: e673 e83c c7ed 8dbd 146d 653d 0a55 14bb
000002d0: b7dc 80bd 5ec5 0d3d 6e0a de3d 9937 b23d
000002e0: 150e ee3c c1f1 203d 3822 ac3d 3b25 fcbc
000002f0: 9cd7 8ebc 4484 cbbc 8412 82bd 7cf7 e3bc
00000300: f1e5 c43d f478 81bd 7e9e 73bc 5b69 be3c
00000310: 4197 37bd 2333 c1bc 7d4f c43d a24b e2bc
00000320: 82be 0ebd 8678 3d3d 0cca 4d3d 0508 8939
00000330: 4d02 f23c b175 233d d98e 06be 8cbb 33bc
00000340: 1642 953c 44be 4bbd db72 a2bd 56da 5e3b
00000350: 99bd 8cbd cdeb 3a3d 5c35 a53d b609 14be
00000360: ed97 f53d f6ea 40be 48d8 59bd 65ca bb3d
00000370: 5178 083d c975 753d 5010 d53c e5a8 a5bc
00000380: cd2e 033e 699a 2bbe a401 8bbd 2628 2dbd
00000390: 70bb 9f3d fdda f43d 098b 28bd 4587 f6bd
000003a0: f7db eebc ad1b 363d 6d8f 66bc 1451 f4bc
000003b0: a684 9b3d 74d8 6dbd a24d 05bd cc50 c3bc
000003c0: 0602 ab3d 7d91 683d 9a9b 15bd 50fc 7d3b
000003d0: 8678 3e3d 6f20 e13b b1b0 17bd 6d60 62be
000003e0: 2a6b 343d 54ec a7bd 4982 7fbc 4846 9a3d
000003f0: 81ab e63c 71a6 ac3d 142b 4dbc e290 02bd

network_body._body_endoder.seq_layers.0.bias f4 [128]
0.016790414 0.0051171696 0.029574404 -0.00029051915 0.035533294 0.0040267627 0.017806603 0.06836423
0.008591874 0.0069542266 0.023157801 0.015144791 0.02012527 0.04086698 0.012198531 0.031985845
0.018084818 0.025836298 0.03001553 0.0047136913 0.006633998 0.016797086 0.03848841 0.00564126
0.017171986 0.0322542 0.007552824 -0.009296506 0.033633113 0.031334825 0.0036245086 0.02699013
0.014703832 0.04032873 0.010233865 -0.00089930824 0.0044591054 -0.016153984 -0.04243701 0.041634593
0.004697313 0.0053774477 0.027157938 0.005937085 0.008871787 0.00997246 -0.005979838 -0.03132003
-0.0016978781 0.034018468 0.013787298 -0.01470646 -0.019728094 0.0008294353 0.043507993 0.032195255
-0.017386917 0.014173392 0.00053143286 -0.029676195 0.0058927992 0.013920967 0.027418125 -0.0020973359
-0.004870307 0.026698487 -0.013685766 0.030036435 -0.002949651 0.024779983 0.033680417 0.0077026496
0.020894878 0.022348212 0.012262235 0.018340703 0.01350237 0.00048339792 -0.028723994 -0.010931069
0.035132974 0.025940267 0.0280132 0.017184569 -0.022191208 -0.03045498 -0.019040523 0.020684749
0.022500252 0.020176018 -0.0021767255 0.008511861 -0.03309814 0.037630294 0.044352084 0.022378301
0.014805039 0.008930055 0.02885663 -0.002485605 -0.028347345 0.0138882445 -0.021513365 0.0076114857
0.005738674 0.01410253 -0.006953743 0.01626424 0.014622005 0.014601022 0.03469428 0.046302423
-0.007345197 0.0118312985 0.021357235 0.039802663 0.014251887 0.0050714803 0.027579315 0.017098658
-0.0022614491 0.010048828 0.015521994 0.010766811 -0.002732269 0.028082851 0.0029166066 0.008426501
00000000: 0d8c 893c eead a73b 0546 f23c d250 98b9
00000010: 5c8b 113d eff2 833b 27df 913c 8c02 8c3d
00000020: eec4 0c3c 48e0 e33b 6eb5 bd3c dc21 783c
00000030: c0dd a43c 2264 273d 59dc 473c 9703 033d
00000040: 9d26 943c a5a6 d33c 21e3 f53c 4f75 9a3b
00000050: 0262 d93b 0b9a 893c 06a6 1d3d 52da b83b
00000060: 44ac 8c3c fb1c 043d ae7d f73b 5f50 18bc
00000070: e0c2 093d f258 003d 2a89 6d3b 681a dd3c
00000080: 57e8 703c bd2f 253d f1ab 273c 8ebf 6bba
00000090: b01d 923b 5c55 84bc 6ed2 2dbd 0989 2a3d
000000a0: ebeb 993b 4d35 b03b 537a de3c e18b c23b
000000b0: f95a 113c 8763 233c 84f2 c3bb 6f49 00bd
000000c0: 568b deba f356 0b3d 1fe4 613c 5df3 70bc
000000d0: d09c a1bc 766e 593a 7035 323d 2cdf 033d
000000e0: 026f 8ebc 8437 683c db4f 0b3a 7e1b f3bc
000000f0: 6218 c13b c414 643c fa9b e03c 7573 09bb
00000100: 1997 9fbb c9b6 da3c 433a 60bc f80e f63c
00000110: ef4e 41bb 64ff ca3c 7af4 093d 8266 fc3b
00000120: bc2b ab3c 9913 b73c 8be7 483c 3e3f 963c
00000130: 0b39 5d3c 9270 fd39 954e ebbc 3a18 33bc
00000140: 98e7 0f3d af80 d43c f07b e53c a7c6 8c3c
00000150: 56ca b5bc b97c f9bc dffa 9bbc 1073 a93c
00000160: 7352 b83c 2d48 a53c 65a7 0ebb 5575 0b3c
00000170: ea91 07bd 3922 1a3d 88aa 353d b352 b73c
00000180: d690 723c 5e4f 123c bd64 ec3c 88e5 22bb
00000190: b138 e8bc 858b 633c cc3c b0bc c569 f93b
000001a0: 7d0b bc3b 4c0e 673c 39dc e3bb 953c 853c
000001b0: 2291 6f3c 2039 6f3c 971b 0e3d 9ca7 3d3d
000001c0: faaf f0bb 10d8 413c 5ef5 ae3c 1e08 233d
000001d0: bf80 693c a92e a63b 04ee e13c 7c12 8c3c
000001e0: d234 14bb d7a3 243c f64f 7e3c 4767 303c
000001f0: de0f 33bb 020e e63c 8a24 3f3b 4f0f 0a3c

network_body._body_endoder.seq_layers.2.weight f4 [128, 128]
-0.08327372 -0.09678007 0.2033028 -0.18772317 -0.022817304 0.019951412 0.06742572 0.11661635
-0.06646038 0.069986194 -0.030571597 0.13720791 -0.007089221 0.13647383 -0.06998827 0.06342853
0.021370165 0.029610807 -0.08345318 -0.027362684 0.07982635 0.018806722 -0.08129756 -0.1117334
-0.10990342 -0.019725228 -0.21218476 -0.19837694 0.23233713 0.10624137 -0.15640096 0.025325207
0.21148627 0.14800346 0.0041799764 -0.02914619 -0.13485877 -0.12269379 -0.07841494 -0.03651102
-0.24400781 -0.091734454 0.105756976 -0.087768115 -0.0051908726 -0.07763907 -0.07308679 0.10550634
0.07150028 0.22465639 0.048190333 -0.107335635 -0.06575358 -0.1344635 -0.077351354 0.053045847
-0.10227341 0.05668457 -0.054245185 -0.0969532 -0.07229764 -0.08660042 0.037813347 0.09428766
-0.1980223 0.09312819 -0.054597963 0.10931212 0.08829592 0.020039767 0.15112501 0.009311732
0.19653234 0.07074463 0.02518049 0.029268973 0.09770781 -0.1435674 -0.113087155 0.02266164
-0.014494855 0.072836585 0.0054651056 -0.028780801 -0.095347375 -0.073375344 -0.13019256 -0.07183739
0.029589659 -0.0865396 -0.07274771 -0.1354746 -0.006094106 -0.023469986 0.12504113 0.022107782
0.0996474 0.034920305 0.051018573 -0.0075873113 -0.038594868 -0.083389215 -0.15642767 0.026672933
0.027162373 0.072905324 -0.1677843 0.060279056 0.12348391 0.088875815 0.022947391 0.051288303
0.029723987 -0.15943512 0.08831042 0.11564418 0.024263931 -0.1604716 0.086530626 -0.08477049
-0.07156424 -0.10609863 0.035637718 0.02702539 -0.06493203 0.14327644 0.052838247 0.17609826
0.13255614 -0.10998286 0.038807232 -0.0285122 -0.08427245 -0.05424769 -0.00052599376 -0.005735124
-0.009755626 -0.16575795 0.054246802 0.047462493 -0.016521558 0.023247402 -0.077516474 0.11423469
-0.008448873 0.20835023 0.05030566 -0.057166535 0.07464995 0.15446737 0.085375346 -0.075350255
-0.056434292 0.1688253 -0.14780284 -0.18228762 0.28988162 0.102923445 -0.08462409 0.099793166
0.1004567 0.23471744 -0.10845781 -0.15399638 -0.10436313 -0.14171313 -0.014138916 0.072147414
-0.096636504 -0.1305035 0.0003550339 0.08814339 0.08639376 0.11053036 -0.0344736 -0.1148287
0.14496131 -0.051928964 0.12753598 0.18832289 -0.06722797 -0.08519124 -0.003976688 -0.022451788
-0.04333021 -0.018752672 -0.05420529 0.057985164 -0.15179728 -0.15582226 0.06411463 -0.032887023
-0.022171374 0.16976246 -0.09819741 -0.088025525 -0.039647214 0.20277785 0.04000198 -0.07532192
0.15277945 0.15738799 0.104823776 0.16657811 0.2397742 -0.060486075 0.019272478 0.0019920229
0.02331301 -0.044335995 0.07543362 -0.032933824 -0.13163736 -0.014159976 -0.059726 0.06804171
0.008805866 -0.077369615 -0.13330893 -0.010030772 -0.061704982 0.09499035 0.016392576 -0.019387852
-0.02660879 -0.099585734 0.19379543 0.0054687927 -0.047900584 0.1553823 0.0066841235 0.009757108
0.037138104 0.017076759 0.085358344 0.21923213 0.09952656 0.06984738 0.17032549 -0.087506495
0.0013067675 -0.061825737 0.15670346 0.0058931937 0.04619813 -0.04024966 -0.03205457 0.05474311
-0.029395204 0.011829404 0.061868664 -0.100065656 -0.09562462 0.09879784 0.17768048 -0.13913594
00000000: 6a8b aabd a134 c6bd 9c2e 503e 813a 40be
00000010: 5beb babc 2571 a33c 7f16 8a3d 8ed4 ee3d
00000020: 611c 88bd ec54 8f3d 4971 fabc 3b80 0c3e
00000030: b24c e8bb ccbf 0b3e 0356 8fbd d1e6 813d
00000040: 7c10 af3c 5d92 f23c 80e9 aabd b527 e0bc
00000050: ff7b a33d 8e10 9a3c 567f a6bd 7bd4 e4bd
00000060: 0b15 e1bd cd96 a1bc f646 59be 5323 4bbe
00000070: c9e9 6d3e 1395 d93d 9327 20be cf76 cf3c
00000080: db8f 583e 388e 173e 2ff8 883b fec3 eebc
00000090: 6b18 0abe e246 fbbd 0398 a0bd 948c 15bd
000000a0: 2fdd 79be 46df bbbd 1d97 d83d c5bf b3bd
000000b0: 3218 aabb 3c01 9fbd 87ae 95bd b513 d83d
000000c0: bd6e 923d 530c 663e 3a63 453d c9d2 dbbd
000000d0: d0a9 86bd cdb0 09be 636a 9ebd 9a46 593d
000000e0: b974 d1bd 142e 683d 3330 5ebd 668f c6bd
000000f0: c910 94bd 905b b1bd 2be2 1a3d e419 c13d
00000100: 5cc6 4abe feb9 be3d 1da2 5fbd 08df df3d
00000110: 7ed4 b43d 702a a43c 84c0 1a3e 3c90 183c
00000120: c63f 493e 90e2 903d 5147 ce3c 7cc5 ef3c
00000130: 081b c83d 5503 13be 3d9a e7bd e7a4 b93c
00000140: d47b 6dbc 592b 953d a114 b33b b7c5 ebbc
00000150: 7c45 c3bd d045 96bd 3351 05be 7b1f 93bd
00000160: 0366 f23c ac3b b1bd c0fc 94bd dbb9 0abe
00000170: 11b1 c7bb 2144 c0bc c80a 003e 611b b53c
00000180: f013 cc3d 9808 0f3d daf8 503d fb9e f8bb
00000190: a715 1ebd f7c7 aabd 932e 20be 3281 da3c
000001a0: a083 de3c 634f 953d a6cf 2bbe 2ce7 763d
000001b0: 22e5 fc3d 8604 b63d 2bfc bb3c af13 523d
000001c0: b87f f33c f642 23be 18dc b43d dbd6 ec3d
000001d0: 27c5 c63c ab52 24be f836 b13d 279c adbd
000001e0: 4690 92bd 3d4a d9bd dbf8 113d 5a64 dd3c
000001f0: 16fb 84bd 0fb7 123e eb6c 583d 1a53 343e
00000200: ccbc 073e b23e e1bd 55f4 1e3d 6b92 e9bc
00000210: 0997 acbd d332 5ebd d8e2 09ba b5ed bbbb
00000220: 10d6 1fbc 74bc 29be e531 5e3d 0868 423d
00000230: 3858 87bc 5671 be3c f5c0 9ebd e1f3 e93d
00000240: 246d 0abc c359 553e 4f0d 4e3d 7527 6abd
00000250: 13e2 983d b22c 1e3e 45d9 ae3d 3c51 9abd
00000260: a527 67bd 8ae0 2c3e a159 17be 9ba9 3abe
00000270: 5d6b 943e 87c9 d23d 654f adbd 5c60 cc3d
00000280: 3ebc cd3d c559 703e 211f debd 3ab1 1dbe
00000290: 56bc d5bd 3f1d 11be e9a6 67bc 06c2 933d
000002a0: 5ce9 c5bd b6a2 05be d823 ba39 8684 b43d
000002b0: 36ef b03d be5d e23d 3134 0dbd 4f2b ebbd
000002c0: bd70 143e 77b3 54bd cb98 023e b7d7 403e
000002d0: d1ae 89bd bf78 aebd e04e 82bb d0ec b7bc
000002e0: 057b 31bd 349f 99bc 5e06 5ebd da81 6d3d
000002f0: bf70 1bbe df8f 1fbe 884e 833d 8bb4 06bd
00000300: bea0 b5bc 36d6 2d3e b91b c9bd ba46 b4bd
00000310: 1e65 22bd ffa4 4f3e 1ed9 233d 6142 9abd
00000320: 3772 1c3e 512a 213e d9ad d63d 7493 2a3e
00000330: 5e87 753e 3fc0 77bd 51e1 9d3c 998c 023b
00000340: edfa be3c a999 35bd f17c 9a3d 9ee5 06bd
00000350: f2cb 06be 3eff 67bc 40a3 74bd 7459 8b3d
00000360: 7b46 103c f673 9ebd 2382 08be 1b58 24bc
00000370: 5dbe 7cbd 4d8a c23d b949 863c 46d3 9ebc
00000380: adfa d9bc 9bf3 cbbd 4f72 463e 8f33 b33b
00000390: 6733 44bd 8a1c 1f3e 7e06 db3b 47dc 1f3c
000003a0: 201e 183d 8fe4 8b3c 5bd0 ae3d 637e 603e
000003b0: 95d4 cb3d 250c 8f3d ce69 2e3e 9b36 b3bd
000003c0: d747 ab3a fc3c 7dbd df76 203e b11b c13b
000003d0: 403a 3d3d d4dc 24bd a74b 03bd 503a 603d
000003e0: 36ce f0bc 1ed0 413c ff69 7d3d 39ef ccbd
000003f0: d7d6 c3bd 8656 ca3d dff1 353e a779 0ebe

network_body._body_endoder.seq_layers.2.bias f4 [128]
0.029297424 0.017578075 0.018604387 -0.0064008306 0.020849066 0.023074523 0.015236868 0.0032281568
0.014139576 0.00066386245 0.013521351 0.01605416 0.032849688 0.0048663523 0.018578596 0.025757901
0.00813447 0.008653777 0.009507532 0.015516992 0.0022928973 0.03536311 0.035015903 -0.0030306075
0.0314191 0.02304556 0.00084128213 0.010341295 0.007654798 0.029512817 0.0037991074 0.017897056
0.015531922 0.017530315 0.017363826 0.0033930542 0.0019614396 0.03458891 0.0076985415 0.01275006
0.006307218 0.028841112 0.018134512 0.010713409 0.018326903 0.012714636 0.026756994 0.01185728
0.01076966 0.022727767 0.013709437 0.02301451 0.01829465 0.0033943285 0.011488379 0.0071213287
0.0014643335 0.032030325 0.024307804 0.015143903 0.016472012 0.021011733 0.0026510747 0.015292768
0.005862962 0.02995822 0.017854352 0.030991271 0.025987903 0.017014856 0.017712774 0.013242604
0.025939953 0.0065916083 0.01147467 0.010210823 0.023038382 0.023627473 0.011734105 0.0025773814
0.005553303 0.019588312 0.032949865 0.007174178 0.025761515 0.010378793 0.04292283 0.0076673613
0.025311299 0.027711859 0.01716005 0.0073040193 0.012302074 0.023343466 0.017460037 0.023355268
0.009811639 0.008752854 0.00757568 0.010706016 0.012848954 0.0035619074 0.011863531 0.0030603027
0.021743411 0.006088703 0.022912249 0.017952058 0.011829805 0.023436425 -0.0065185633 0.0066106967
0.032084975 0.011669026 0.0032026884 0.0051794625 0.026954051 0.027626969 0.014324735 0.023722578
0.023655409 0.022537746 0.010469496 0.043235138 0.025507692 0.019347295 0.014964705 0.03973655
00000000: 2701 f03c e5ff 8f3c 3a68 983c 0fbe d1bb
00000010: a9cb aa3c c806 bd3c 0ea4 793c 7c8f 533b
00000020: aea9 673c 0e07 2e3a a888 5d3c 0484 833c
00000030: 658d 063d ec75 9f3b 2432 983c 3c02 d33c
00000040: 7146 053c 92c8 0d3c 7bc5 1b3c fb3a 7e3c
00000050: 6f44 163b e9d8 103d d66c 0f3d 289d 46bb
00000060: 50b1 003d 0bca bc3c 7d89 5c3a 896e 293c
00000070: 1ad5 fa3b ddc4 f13c 72fa 783b d99c 923c
00000080: 9a79 7e3c bc9b 8f3c 953e 8e3c 015e 5e3b
00000090: 7f8b 003b 1aad 0d3d 0c44 fc3b a1e5 503c
000000a0: c8ac ce3b 3244 ec3c d48e 943c 4b87 2f3c
000000b0: 4d22 963c 0c51 503c 7c31 db3c 0945 423c
000000c0: 3a73 303c 952f ba3c 8c9d 603c ed88 bc3c
000000d0: a9de 953c 6273 5e3b c139 3c3c 095a e93b
000000e0: e1ee bf3a 3b32 033d 2921 c73c 221e 783c
000000f0: 50f0 863c cc20 ac3c a7bd 2d3b 858e 7a3c
00000100: 171e c03b f16a f53c 4a43 923c 68e1 fd3c
00000110: 95e4 d43c bd62 8b3c 611a 913c 82f7 583c
00000120: 0680 d43c 6bfe d73b 4100 3c3c 4c4b 273c
00000130: fdba bc3c 678e c13c 6740 403c 49e9 283b
00000140: 7bf8 b53b ab77 a03c 70f6 063d 5e15 eb3b
00000150: d009 d33c d00b 2a3c d9cf 2f3d 7d3e fb3b
00000160: a459 cf3c fb03 e33c 3c93 8c3c 8e56 ef3b
00000170: a38e 493c cc3a bf3c 5a08 8f3c 8c53 bf3c
00000180: ffc0 203c 2168 0f3c 693d f83b 4968 2f3c
00000190: 6b84 523c e46e 693b 415f 423c 5c8f 483b
000001a0: 3d1f b23c be83 c73b 78b2 bb3c 3210 933c
000001b0: ccd1 413c bffd bf3c ac99 d5bb 8b9e d83b
000001c0: 896b 033d 712f 3f3c 32e4 513b 7bb8 a93b
000001d0: bece dc3c f451 e23c 4bb2 6a3c da55 c23c
000001e0: fdc8 c13c 14a1 b83c 4088 2b3c 5417 313d
000001f0: 82f5 d03c 387e 9e3c 862e 753c cbc2 223d

action_model._discrete_distribution.branches.0.weight f4 [2, 128]
-0.09491054 -0.10160838 0.075275816 0.013935584 0.046845023 -0.08463086 -0.05320866 0.05496607
-0.041489862 0.058626983 0.03663735 0.06899384 -0.12707603 -0.06365057 -0.07660053 -0.11387499
0.06114608 0.06996079 0.07971462 0.09269578 0.06800443 -0.12701334 -0.13110971 0.03461277
0.12792245 -0.10708366 0.039200943 0.07355226 0.078974634 -0.073571615 0.07313406 -0.055982348
-0.05847646 -0.06490962 -0.06909786 0.06935909 0.034430493 -0.11724298 0.046757735 -0.049231444
0.057943664 0.05548282 -0.05147065 0.076955765 -0.043128192 0.09252467 -0.13316065 -0.04078651
0.09147391 -0.09029802 -0.04757169 0.080710076 -0.09159231 0.073511966 0.05252323 0.07705411
0.069442935 -0.112626724 -0.07929846 -0.058920596 0.04903677 -0.10269726 0.09476398 0.059716024
-0.036874298 -0.101283714 -0.05528741 -0.09164531 0.08224367 -0.06371409 -0.05936898 0.05403109
-0.07114051 0.05831018 0.037686244 0.068426944 -0.07801855 0.073187724 0.06363332 0.058998547
0.068446495 -0.06081519 -0.098871596 0.073040634 -0.084302776 0.08649089 -0.12641615 0.073599204
-0.08808809 0.0611693 -0.053076483 -0.03193607 0.031693015 -0.09340135 0.053926386 0.0924763
0.09572089 0.0665479 0.07400478 0.055657327 -0.04206999 0.06371915 0.093946174 0.067634024
-0.07082037 -0.029387226 -0.066973604 -0.06514355 0.08076498 -0.084456 0.03058287 0.06985978
-0.09615053 -0.019345649 0.054667752 0.06721999 -0.09794948 0.08284734 -0.04489681 -0.07878092
-0.06972851 -0.08133587 0.09074836 -0.09258874 -0.07562911 0.071827166 0.06450686 -0.13144544
0.09844658 0.10654757 -0.10124193 -0.010757474 -0.0462262 0.07859744 0.06975024 -0.05460204
0.032903925 -0.06194324 -0.056747954 -0.07301724 0.13946152 0.061065752 0.07413075 0.11746475
-0.06674054 -0.06605827 -0.062181782 -0.08310938 -0.08055995 0.13224582 0.12425634 -0.041652624
-0.102748536 0.10788243 -0.045719948 -0.07834128 -0.058926843 0.0909101 -0.05645009 0.04452178
0.0498268 0.06686953 0.06521733 -0.06634369 -0.05406893 0.12827958 -0.05102236 0.06887161
-0.05531604 -0.046025448 0.04903786 -0.0693881 0.033752672 -0.09105674 0.11420825 0.037318297
-0.093531206 0.075020164 0.050840516 -0.075074404 0.111728944 -0.07214991 -0.052080516 -0.07058761
-0.06481956 0.109424785 0.08035711 0.043957233 -0.047459822 0.07148356 -0.06927089 -0.037973423
0.043942638 0.08942713 0.046848606 0.08932298 -0.08811768 0.07192456 0.049594335 -0.0664243
0.079744145 -0.05830573 -0.04259597 -0.061339904 0.07856493 -0.07025813 -0.06853904 -0.07818671
-0.03821601 0.053046815 0.09590923 -0.066948675 0.064769834 -0.057103936 0.16324839 -0.06127806
0.098887384 -0.050438806 0.06795415 0.019285744 -0.04696218 0.10503519 -0.039576404 -0.09692596
-0.075649075 -0.07407041 -0.062372386 -0.052243534 0.038615014 -0.071125045 -0.09558852 -0.0706172
0.06505767 0.04433799 0.06860898 0.060494777 -0.07715885 0.10173469 -0.013514894 -0.059860688
0.09622657 0.035520095 -0.04578224 -0.046505798 0.08682675 -0.059786446 0.043719586 0.08382285
0.051520087 0.066441976 -0.08063685 0.096738465 0.07789733 -0.05923752 -0.05484355 0.121370375
00000000: 7560 c2bd 0e18 d0bd 352a 9a3d 1352 643c
00000010: 91e0 3f3d f252 adbd 53f1 59bd 1a24 613d
00000020: 46f1 29bd d922 703d 0c11 163d a44c 8d3d
00000030: 3820 02be 3b5b 82bd bde0 9cbd 4a37 e9bd
00000040: 5074 7a3d 9a47 8f3d 6b41 a33d 49d7 bd3d
00000050: e845 8b3d c90f 02be a041 06be 1fc6 0d3d
00000060: 1afe 023e ae4e dbbd 2b91 203d 91a2 963d
00000070: 74bd a13d b7ac 96bd 4fc7 953d bf4d 65bd
00000080: 0385 6fbd 56ef 84bd 2e83 8dbd 230c 8e3d
00000090: fd06 0d3d 161d f0bd 0a85 3f3d e9a6 49bd
000000a0: 5656 6d3d f441 633d e3d2 52bd fc9a 9d3d
000000b0: 30a7 30bd 937d bd3d 445b 08be c10f 27bd
000000c0: ac56 bb3d 2bee b8bd 88da 42bd 534b a53d
000000d0: c094 bbbd 718d 963d 9922 573d 8cce 9d3d
000000e0: 1938 8e3d d7a8 e6bd 3b67 a2bd b956 71bd
000000f0: c8da 483d f152 d2bd 9e13 c23d ca98 743d
00000100: 8109 17bd d66d cfbd 0d75 62bd 89b0 bbbd
00000110: 5f6f a83d 887c 82bd e32c 73bd b44f 5d3d
00000120: 1eb2 91bd a8d6 6e3d e45c 1a3d 6d23 8c3d
00000130: 31c8 9fbd 72e3 953d 3052 823d 76a8 713d
00000140: ad2d 8c3d 5919 79bd 317d cabd 5496 953d
00000150: efa6 acbd 2322 b13d 3c73 01be 2ebb 963d
00000160: 8767 b4bd a98c 7a3d ba66 59bd 66cf 02bd
00000170: 89d0 013d 3549 bfbd eae1 5c3d 3764 bd3d
00000180: 5009 c43d 444a 883d d18f 973d f0f8 633d
00000190: 9551 2cbd 307f 823d da66 c03d b583 8a3d
000001a0: 450a 91bd 7bbd f0bc 7529 89bd fb69 85bd
000001b0: 1c68 a53d 44f7 acbd ed88 fa3c a512 8f3d
000001c0: 92ea c4bd c47a 9ebc 4beb 5f3d a2aa 893d
000001d0: bd99 c8bd deab a93d b8e5 37bd e457 a1bd
000001e0: d2cd 8ebd 6c93 a6bd 47da b93d 2a9f bdbd
000001f0: 6fe3 9abd 1f1a 933d 2c1c 843d a299 06be
00000200: 5c9e c93d 9d35 da3d ee57 cfbd 1e40 30bc
00000210: af57 3dbd b2f7 a03d 37d9 8e3d 64a6 5fbd
00000220: 44c6 063d 32b8 7dbd 8b70 68bd 108a 95bd
00000230: 00cf 0e3e 1520 7a3d ddd1 973d 5c91 f03d
00000240: 44af 88bd 8f49 87bd 53b2 7ebd 4035 aabd
00000250: 9dfc a4bd 736b 073e 1c7a fe3d f19b 2abd
00000260: d36d d2bd 77f1 dc3d d744 3bbd 6571 a0bd
00000270: 465d 71bd 132f ba3d 3638 67bd 785c 363d
00000280: 3017 4c3d e4f2 883d aa90 853d 33df 87bd
00000290: 6277 5dbd b95b 033e d2fc 50bd 8f0c 8d3d
000002a0: 1293 62bd 2e85 3cbd ecdb 483d 591b 8ebd
000002b0: 3e40 0a3d f57b babd 04e6 e93d 12db 183d
000002c0: 4a8d bfbd 2ca4 993d 253e 503d 9cc0 99bd
000002d0: 25d2 e43d 55c3 93bd 6152 55bd 3d90 90bd
000002e0: 1ec0 84bd 1a1a e03d 4592 a43d 800c 343d
000002f0: 3b65 42bd f965 923d e5dd 8dbd 058a 1bbd
00000300: 32fd 333d 9225 b73d 53e4 3f3d f7ee b63d
00000310: 0b77 b4bd 2f4d 933d 6e23 4b3d 7709 88bd
00000320: e650 a33d fdd1 6ebd 1d79 2ebd 8d3f 7bbd
00000330: a6e6 a03d 7fe3 8fbd 325e 8cbd 5b20 a0bd
00000340: 6488 1cbd 9e47 593d 0f6c c43d 631c 89bd
00000350: 0ca6 843d d1e5 69bd 962a 273e b4fe 7abd
00000360: 7885 ca3d ec98 4ebd 8c2b 8b3d 23fd 9d3c
00000370: 6a5b 40bd b11c d73d de1a 22bd 1e81 c6bd
00000380: e7ed 9abd 3ab2 97bd 307a 7fbd 51fd 55bd
00000390: c72a 1e3d 02aa 91bd eac3 c3bd c09f 90bd
000003a0: f53c 853d c19b 353d dd82 8c3d 5fc9 773d
000003b0: 7605 9ebd 475a d03d 936d 5dbc 7b30 75bd
000003c0: 7012 c53d 857d 113d 2886 3bbd dd7c 3ebd
000003d0: 39d2 b13d a2e2 74bd 4f13 333d 50ab ab3d
000003e0: ba06 533d bb12 883d ef24 a5bd d11e c63d
000003f0: a388 9f3d 0ba3 72bd a1a3 60bd 0891 f83d

action_model._discrete_distribution.branches.0.bias f4 [2]
-0.008890422 0.008890432
00000000: 22a9 11bc 2da9 113c
